Scene/result/SNH_500_10000_dt006/nc_FEM_999999999.pt (torch, 57090 bytes, 9 tensors)

linear_gelu_stack.0.weight f4 [64, 3]
000000 91 9c d7 3d 07 25 69 3f ad 55 e3 3e 7c 71 97 bf
       0.105279095 0.91072124 0.44401303 -1.1831508
000010 94 a7 80 3e ad 66 c2 3e 4e 39 55 bf d2 43 67 be
       0.25127852 0.3796896 -0.83290565 -0.22584465
000020 f1 a7 d6 bf d0 45 7f bf 3f 93 38 3e 13 fd 48 bf
       -1.6770002 -0.997159 0.1802492 -0.7851116
000030 ca 2b 68 3c bc f4 c8 be c6 42 8a 3f 10 19 14 3f
       0.014170596 -0.39249218 1.0801628 0.5785074
000040 78 4b 1c bf b1 7e b3 3d 4c 9d 31 bf 1d f3 cb bd
       -0.61052656 0.08764399 -0.6938064 -0.099584796
000050 33 24 d5 bf e7 a8 13 3e 8b 99 81 bf 3f 68 33 3f
       -1.6651672 0.144199 -1.0124983 0.7008094
000060 f4 dd 5f 3f e0 86 25 bf 5b 06 c5 bd 11 85 60 bf
       0.8744805 -0.6465893 -0.09620353 -0.87703043
000070 ea d5 0c 3f 75 f8 3a bd dd 54 db be 80 81 35 3f
       0.55013907 -0.045647103 -0.42838183 0.70900726
000080 a9 e5 0d 3f 9d fb 8d bf d6 cc 14 3e fe a5 9f bf
       0.5542856 -1.1092411 0.14531264 -1.2472532
000090 ad 5c 8e be 31 6c 7f 3f 71 cd 83 be 8c 80 c5 be
       -0.2780508 0.9977446 -0.25742677 -0.38574636
0000a0 c7 23 4a 3f 53 e8 62 bf e8 a1 f3 bd ae a3 a9 3e
       0.7896084 -0.8863575 -0.118961155 0.3313269
0000b0 fb 56 9b 3f c2 08 85 3f c0 14 d4 be 44 42 06 3f
       1.2135919 1.0393298 -0.4142208 0.52444863
0000c0 fe 00 b4 bf 77 b9 0e 3d b8 e3 a2 bf b0 c8 da 3e
       -1.4062803 0.03484484 -1.2725744 0.42731237
0000d0 bb 7c 6c bf 76 e1 0d 3f 3b 4c 30 3f c1 1b 64 3f
       -0.92377824 0.5542215 0.6886632 0.8910485
0000e0 27 aa ef bd 0d fc 98 3f 6f bd 0e bf 73 44 a5 3e
       -0.11702376 1.195192 -0.557578 0.32278785
0000f0 e4 3e 82 3f 87 4b 08 3f 9a 13 a3 3f 59 d3 0c bf
       1.0175443 0.53240246 1.2740357 -0.5500999
000100 43 71 f6 3e f6 3c 86 bf 3a c2 66 bf 37 45 ad 3d
       0.48133287 -1.0487354 -0.90140116 0.08460467
000110 c5 8e d1 bf 7d b3 23 bf 10 f7 32 bf 54 4f 4f 3f
       -1.6371695 -0.6394575 -0.6990824 0.8098042
000120 7a 3a 6d 3f b7 7f 1b bf 9b e9 c7 3e 24 1d e8 bd
       0.92667353 -0.6074175 0.39045414 -0.11333683
000130 30 ed 48 be bd aa 4c be 33 bd 3c bf dc b1 37 3f
       -0.1962173 -0.19987006 -0.73726195 0.71755767
000140 56 b1 0e bf a0 41 7c be 1a ca 61 bf 4e 2a 0e 3f
       -0.55739343 -0.24634409 -0.8819901 0.555333
000150 ff 34 95 be 47 d9 5a bf e9 2e 5e 3f 19 37 82 3f
       -0.29141995 -0.8548779 0.8679033 1.0173064
000160 a2 a7 0d bf 93 bb 49 3f 9e 97 b8 be 8e 91 73 be
       -0.5533391 0.7880184 -0.36053175 -0.23785993
000170 ad d6 95 3f 1d 8c ca 3d ce 83 3e 3f af cc 80 3f
       1.1706139 0.09890006 0.7441987 1.0062464
000180 8d 1c 0b bf 62 1c 04 be 92 4f c9 bf 96 10 13 3f
       -0.5434044 -0.12901452 -1.5727408 0.57447183
000190 f6 c3 5f be 93 46 96 bf 8c 69 30 3e 43 97 54 be
       -0.21852097 -1.1740288 0.17227763 -0.20760827
0001a0 35 06 7d be 6f d3 8d 3f 72 e3 06 3f 5f 61 9f 3f
       -0.24709399 1.108015 0.52690804 1.245159
0001b0 03 9d 54 bf 8f 94 35 be 3b 69 bb bf 1b fc 81 3d
       -0.8305208 -0.17732452 -1.4641489 0.063469134
0001c0 5a b9 7c bf f9 d5 02 3f 06 1e 22 bf 00 65 77 bd
       -0.98720324 0.51107746 -0.6332706 -0.060399055
0001d0 30 00 82 3f 0e 92 87 3e 70 24 58 3f 51 d9 41 bf
       1.0156307 0.26478618 0.844306 -0.75722224
0001e0 5e 13 25 3d cf 8d 53 bf 70 74 a7 3e 32 a3 12 bf
       0.040301673 -0.8263826 0.32706022 -0.57280266
0001f0 ab fb 4b be 1a fb dc bf ff 60 85 bf 90 ca bd 3e
       -0.19920222 -1.726413 -1.0420226 0.37068605
000200 fe ff 75 bf 9c 38 3f bf 8c df b1 3e 21 ef c7 3e
       -0.9609374 -0.74695754 0.34740865 0.39049628
000210 fe 6c 4b bf 0c 3e 6f bd e5 d2 70 3f 78 4b 27 bf
       -0.79463184 -0.058408782 0.940718 -0.6534953
000220 fa a2 29 bf ba cb 2d 3f ca de f7 bc 98 3d 2f 3f
       -0.6626431 0.6788899 -0.030257601 0.6845336
000230 16 d1 79 bf 60 44 76 3e c0 51 73 3f 21 81 e9 be
       -0.97584665 0.2404952 0.95046616 -0.4560633
000240 f3 31 df 3d b7 36 21 bf 25 a4 68 3e cb 1b 3c 3f
       0.10898199 -0.62974113 0.22718866 0.7347991
000250 35 75 48 bf 72 76 9c 3e 03 6d 90 3f 7b 98 b1 be
       -0.78303844 0.30559117 1.1283268 -0.34686646
000260 fe aa 58 be 51 54 f7 be 6e 11 45 bf ec e8 12 3f
       -0.21158978 -0.48306516 -0.7697972 0.5738666
000270 ac a9 97 bf f4 b6 8b 3e 40 86 70 bf cf 7c 53 be
       -1.1848655 0.2728802 -0.9395485 -0.2065308
000280 ba ca 7c be 4e 01 96 3f c6 5f 99 be 19 41 1b be
       -0.24686709 1.1719148 -0.29955882 -0.15161552
000290 10 34 a3 bf 7d a5 39 bf 78 60 d2 be 6e 8e 3e 3f
       -1.2750263 -0.7251814 -0.41089225 0.7443608
0002a0 05 c8 41 bf cb 87 18 be 7c e6 c1 bf a2 9b 53 bf
       -0.7569583 -0.14895551 -1.5148463 -0.8265935
0002b0 3a 11 5b 3d 33 52 c5 bf 3e 68 b2 3d 91 d1 72 3f
       0.053483225 -1.541571 0.08711289 0.9485102
0002c0 7a ec fd be ca d8 68 3f 41 75 ce 3e 6b 27 c0 3f
       -0.4959448 0.90955794 0.40323833 1.501203
0002d0 e2 8a 86 3e a1 bf 52 3f 38 9d 82 3f 93 29 02 3f
       0.26277834 0.8232365 1.0204229 0.5084469
0002e0 93 9d 29 3f 11 4f 50 bf 65 e9 46 bf 3c 76 0f 3f
       0.66256064 -0.81370646 -0.7769988 0.56039786
0002f0 81 6c 7e 3e 50 78 8e 3f c3 42 92 be c5 4b 4e bb
       0.24846078 1.1130466 -0.2856656 -0.0031478268

linear_gelu_stack.2.weight f4 [64, 64]
000000 ba 81 d1 bc a9 77 69 be 1c e2 ce ba 13 79 8d be
       -0.025574554 -0.22799553 -0.0015783939 -0.27631435
000010 60 ba 3a 3f 81 96 1c 3d e9 0a 10 be c6 c2 66 3e
       0.72940636 0.03822947 -0.14066662 0.22535238
000020 21 57 f0 3d fc 46 ac be f8 59 ee bd 1b 8a c2 bd
       0.117353685 -0.33647907 -0.11638254 -0.09498998
000030 8a c1 ca be f6 b1 5f bf 4f b2 11 be c8 80 83 3e
       -0.39600784 -0.8738092 -0.14228176 0.2568419
000040 b8 58 d7 be 39 aa 2c 3f ea 28 20 be 70 cd 23 3f
       -0.42059875 0.6744724 -0.15640607 0.6398535
000050 13 84 4d 3e bb 84 19 bf b4 fc 9e be 33 2f 20 3e
       0.20069914 -0.59968156 -0.31052172 0.15643005
000060 6b 7c 23 3f 6f 8f 66 be 4c 2b f2 be a1 45 2d 3d
       0.6386172 -0.22515653 -0.47298658 0.04230273
000070 08 75 ea 3e b3 e6 57 3f 7e 54 22 3f bc 35 9d be
       0.45792413 0.84336394 0.63410175 -0.3070506
000080 05 4d 91 be 0e 0a 5d be 7a 9e 5f be 85 f3 fb bd
       -0.28379074 -0.21585867 -0.21837798 -0.12302307
000090 7e cf 6d be 6d 67 85 3e c4 a8 ec 3e e4 c4 00 bf
       -0.23223683 0.2605547 0.46222508 -0.5030043
0000a0 ef 97 9c 3e 89 39 b3 be 91 0f 30 bf 53 70 db bd
       0.30584666 -0.35004833 -0.6877375 -0.107147835
0000b0 16 02 9a 3e f7 cf 81 3e 9f a7 eb be 5d fa 5a be
       0.30079716 0.25353977 -0.46026322 -0.21384569
0000c0 90 e2 13 be fe b0 8e 3e ba c7 a5 3e 36 de 97 bd
       -0.14441895 0.2786941 0.32378942 -0.0741543
0000d0 c5 3c da be a6 90 4d 3f 5b 1c 3f bd 84 ae 94 3e
       -0.42624488 0.8029884 -0.0466579 0.29039395
0000e0 5a 52 75 be 72 89 e5 be ff 24 c5 be 28 e6 86 3e
       -0.23957196 -0.44831425 -0.38504788 0.2634747
0000f0 32 45 62 be 1d db c4 be cf 3f c0 be b2 e8 0d 3e
       -0.22096708 -0.3844842 -0.37548682 0.13858297
000100 2e f6 68 be f8 6d 67 be 45 6e 05 be db 88 4f be
       -0.2275016 -0.22600543 -0.13030346 -0.2026705
000110 e3 02 96 3e bc ec 91 bd 5a 94 f3 3b 84 d5 36 be
       0.29299077 -0.071252316 0.0074334564 -0.17854887
000120 6f e0 f2 be b7 9c 4f bc 5d 18 93 be 7b 5e 6a be
       -0.47436854 -0.012671641 -0.28729525 -0.22887604
000130 d6 ae 46 be e8 b5 ac be cc 89 a2 3d 25 b3 cf 3e
       -0.19402632 -0.33732533 0.07936439 0.40566364
000140 bf 4f 60 be be 9a 9a 3d 23 73 27 be b8 6c 30 3e
       -0.2190542 0.07549046 -0.16352515 0.17228973
000150 78 2e 58 be 8f 2b 82 be b1 6e 30 be 63 47 4f 3d
       -0.21111476 -0.25423858 -0.17229725 0.05060519
000160 76 7d 50 be 06 bf 41 be 85 db 30 be 39 04 a1 bd
       -0.2036036 -0.18920526 -0.1727124 -0.078621335
000170 40 a9 ae 3d 33 85 34 3f 49 6f 81 3e f3 4d f1 bc
       0.085283756 0.70515746 0.25280216 -0.029456114
000180 56 36 6e be dd 07 4c bc 9f ce 6b 3c a7 cf 7b be
       -0.23262915 -0.012453047 0.014392524 -0.24590932
000190 6f 0f ba bd d0 2e 16 be 09 7d aa 3d 75 a5 83 be
       -0.09084975 -0.14666295 0.0832463 -0.2571217
0001a0 6a 95 14 bd 03 ce c9 bc 93 72 31 be 81 23 81 be
       -0.036275305 -0.024634367 -0.17328863 -0.252224
0001b0 64 ae 1d 3e 6a 08 a3 bd 30 22 97 be 11 0e 33 be
       0.15398556 -0.07960589 -0.2951827 -0.17485835
0001c0 61 72 0b 3c 06 c1 56 be 7f b4 99 be 1c d6 cc bd
       0.008511157 -0.2097207 -0.3002052 -0.100017756
0001d0 42 58 24 bc 50 18 d7 3e fb 29 5d be f1 57 bc bd
       -0.010030808 0.42010736 -0.21598046 -0.09196461
0001e0 cd 17 0b be 2d 6b b9 be 1a 08 92 be 95 49 bc 3d
       -0.13583298 -0.3621458 -0.28521806 0.09193722
0001f0 88 a6 7e be 9e ac f5 be 0e 7c 46 be 5e 70 b1 3e
       -0.24868214 -0.4798326 -0.1938326 0.34656042
000200 77 d0 b7 bd 61 7e 68 be 85 45 5c be b7 f3 ae bd
       -0.089753084 -0.2270446 -0.21510895 -0.08542579
000210 9e 03 47 3f 9d 37 7e 3c 5b 69 a8 be d4 c7 b5 3e
       0.77739894 0.015516189 -0.3289288 0.3550402
000220 b5 5e 29 3c 73 46 b3 be 43 3d b6 be a7 e8 53 be
       0.010337521 -0.35014686 -0.35593614 -0.20694219
000230 d4 49 9c be 7f 0b 30 bf b3 29 42 3d 7d a7 b4 3e
       -0.30525076 -0.6876754 0.04740305 0.35284033
000240 c1 5a d0 be 3e c6 ef 3e c8 c5 ce be e3 26 22 3f
       -0.4069424 0.46830934 -0.4038527 0.63340586
000250 5e cf 80 3b 12 38 f6 be 94 dc 71 be 7e 5f 55 3d
       0.00393097 -0.48089653 -0.236193 0.05209302
000260 a8 17 07 3f f9 99 46 be 07 ae aa be 6f 99 87 3d
       0.5277047 -0.19394673 -0.33335897 0.06621062
000270 de a3 b6 3e 2e aa 6c 3f c7 eb c0 3e f5 f4 f2 bd
       0.35671896 0.92447174 0.37679884 -0.11863128
000280 20 05 8c bd e0 af 01 be 0f ca 23 bd 95 40 e9 3d
       -0.06836915 -0.12664747 -0.03998762 0.11389271
000290 0d 77 75 be 95 a5 82 3c 9d 79 7b 3e c5 4b b8 be
       -0.23971196 0.015948096 0.2455811 -0.35995308
0002a0 ab c0 62 be d0 48 0d be e5 1f 1e bf 39 b0 85 be
       -0.2214381 -0.13797307 -0.6176742 -0.2611101
0002b0 d2 70 d0 3d ad 09 31 3e 36 86 04 bf 3f fc ec bd
       0.10177769 0.17288847 -0.5176729 -0.115715496
0002c0 b0 7a 39 3e c5 58 c6 3e 30 27 fa 3d 7a a2 77 bd
       0.18113208 0.387396 0.12214506 -0.060457684
0002d0 c3 f5 b3 be b6 51 0a 3f d6 fa 3d be e1 5a 47 3e
       -0.3514844 0.5403093 -0.18552718 0.19468261
0002e0 11 a8 b0 bd 69 6e c3 be 35 1a fa be 74 28 2b 3e
       -0.08625806 -0.38170174 -0.4884812 0.1671465
0002f0 75 1c 34 be e4 6a 81 be 1e 96 c3 be 16 40 ad bd
       -0.1758898 -0.25276864 -0.38200468 -0.08459489
000300 63 a9 6e ba e8 8c 97 be dc 28 01 be 03 c2 ac be
       -0.000910422 -0.2959969 -0.12613243 -0.3374177
000310 06 6e 6d 3f 5b c7 9b bd 5f 44 8a be 78 cf 29 3e
       0.9274601 -0.076063834 -0.27005288 0.1658305
000320 77 33 ac 3d eb c3 0a bf 3b d0 b7 be 06 86 9c be
       0.08408254 -0.542052 -0.35901055 -0.30571002
000330 5c 6c e2 be 7b ad 0c bf 3f b1 ed 3d 2b d9 1e 3f
       -0.44223297 -0.5495221 0.11606073 0.6205012
000340 ec 79 92 be c2 62 01 3f 79 93 12 3c bc eb 36 3f
       -0.28608644 0.5054132 0.008946293 0.7145345
000350 87 84 a0 3c cd d8 dd be a7 c8 d3 be 77 ca bb 3d
       0.019594444 -0.43329468 -0.41364023 0.091694765
000360 00 67 e8 3e 26 ac 3a be 14 61 03 bf 2c e8 84 3c
       0.45391083 -0.18229732 -0.51320004 0.01622399
000370 07 fb 9f 3e 18 b0 5c 3f 62 37 d7 3e c8 a3 1b be
       0.31246206 0.862062 0.4203444 -0.15199196
000380 80 38 2e be 1a 02 4f bc 31 14 8e be 3b f5 39 bd
       -0.1701374 -0.012634778 -0.2774978 -0.045399886
000390 84 c0 be be a8 27 8a 3e 09 5e 0c 3f 2d 11 36 bf
       -0.37256253 0.2698338 0.54830986 -0.7111996
0003a0 55 4b ea 3d e6 3b 42 be e0 ce 25 bf 22 29 ef bd
       0.1144015 -0.18968162 -0.6476879 -0.11677767
0003b0 96 41 ef 3e 58 37 a5 3e e6 60 22 bf ce 32 ae be
       0.46729726 0.32268786 -0.63429105 -0.34023136
0003c0 e3 4e c6 bd 34 0e 68 3e 9f 57 b9 3e 33 3e 77 3d
       -0.09683015 0.22661668 0.36199662 0.060362052
0003d0 55 85 94 be a5 3f d4 3e 22 8e fa bd 73 7c db 3d
       -0.29007974 0.41454807 -0.12234141 0.10717096
0003e0 f1 87 47 be b8 ff e7 bd 4d bc c5 be bf 0c 3f 3e
       -0.19485451 -0.11328071 -0.38620225 0.18657206
0003f0 7d 7a e5 bd 6e 75 2a bf 5a 64 e8 be 2c d3 a9 3e
       -0.112050034 -0.66585433 -0.45389062 0.33168924

linear_gelu_stack.4.weight f4 [1, 64]
000000 d9 3d 57 3f 87 9d 4a 3e b3 63 cf 3e ff 0b 5f 3f
       0.8407875 0.19786654 0.40505752 0.8712768
000010 ac 66 03 bf a0 96 d0 be a0 62 8d be 24 6b 73 be
       -0.5132854 -0.40739918 -0.27614307 -0.2377134
000020 32 b2 91 be 1d 47 8e bd 18 e0 44 be da f8 77 be
       -0.28456265 -0.069471575 -0.1922611 -0.24216023
000030 37 8a d3 3e 83 34 31 3f 15 fc 13 be 7c 98 df 3e
       0.41316387 0.6922075 -0.1445163 0.43671024
000040 fd 43 b9 be 90 03 89 be 97 6f 5c 3f 96 61 e8 be
       -0.36184683 -0.2676053 0.8610777 -0.45386952
000050 5b 41 b6 3e 32 7c 97 be 7f 3e 17 3f 48 24 1e 3f
       0.35596737 -0.2958694 0.59079736 0.6177411
000060 67 88 20 3f bb 81 9b be 4f dc 41 3f c0 c8 bf be
       0.62708133 -0.30372414 0.7572679 -0.37457848
000070 e2 af f5 3e 40 45 90 3e 22 6a 9f 3e 92 4c ac 3e
       0.4798575 0.28177834 0.3113566 0.3365217
000080 48 98 7a be 8b 98 d2 bd 04 33 c3 be f6 75 3e 3f
       -0.24472153 -0.102830015 -0.3812486 0.74398744
000090 f9 9a 36 bf 5e 70 2c 3f 87 89 20 bf ed 09 b5 3e
       -0.7133022 0.6735896 -0.6270985 0.35359135
0000a0 83 49 98 bd 6c cd 46 3f 98 99 7c be 9a 9e 0d bd
       -0.07435896 0.776572 -0.24667966 -0.034575082
0000b0 34 7b be be ec 1a a6 3e f3 0b 88 bd b3 02 d1 be
       -0.37203372 0.32442415 -0.06642904 -0.40822372
0000c0 f8 eb 02 be 9b 86 b9 3e 97 05 88 3f 99 47 1b 3f
       -0.12785327 0.36235508 1.0626706 0.60656124
0000d0 d4 bd 61 3f c5 e5 07 be 66 60 61 3f 0a 28 4c 3f
       0.8818028 -0.13271244 0.8803772 0.79748595
0000e0 5e 97 d4 bd b9 3b 72 be fc a7 a2 3e 75 12 96 be
       -0.103804335 -0.23655595 0.31768787 -0.29310957
0000f0 99 59 3c 3f ac 9f c8 be c0 79 2a bf fc e8 16 3f
       0.73574215 -0.3918432 -0.66592026 0.58949256

exp_avg f4 [64, 3]
000000 66 d6 13 3b 42 f4 38 3b 2e 12 41 3b da 64 36 bb
       0.0022558211 0.002822176 0.0029460299 -0.0027831108
000010 3a c0 cb bb 85 10 e4 ba 3e 48 29 3b bb 5f 31 3b
       -0.0062179836 -0.0017399943 0.0025830413 0.0027065116
000020 e2 a3 ca 3a 90 1e 00 3a 33 22 cb 3b 8b 61 28 bb
       0.0015460218 0.00048873667 0.006199145 -0.0025692906
000030 b2 8b cb bb 87 b2 88 bc 48 3b 52 bb d5 a5 f2 3a
       -0.0062117213 -0.016686691 -0.0032078791 0.0018512557
000040 d6 03 a1 3b 2c 98 9a 3a 63 33 f4 3b 8e 15 ae 3c
       0.0049137874 0.0011794618 0.007452415 0.021250512
000050 18 0f d8 3a 49 c3 17 bb 80 fa 2a bc 0a c9 4b 38
       0.001648399 -0.002315717 -0.0104357 4.8586204e-05
000060 cd 6c 92 3a 94 40 a2 3a 30 8b ce 3a d9 60 15 3b
       0.0011171341 0.0012378865 0.0015758034 0.0022793321
000070 c9 ce 30 3b 79 29 db 39 e5 b2 37 3b 08 b7 9f 3b
       0.0026978722 0.00041801835 0.0028030213 0.004874114
000080 c8 28 56 3b 61 a8 bd 3b b1 76 a2 3c e0 ad 28 ba
       0.0032678116 0.0057878946 0.019831987 -0.0006434601
000090 d8 a8 d5 3b 8c 32 17 3c 5e 45 bc 3b a1 c2 26 3c
       0.006520372 0.00922836 0.005745574 0.010178239
0000a0 2d 1b 59 3c 3a a3 06 3c 0a 25 11 bb 69 0e 48 bc
       0.013251108 0.008217627 -0.002214732 -0.012210467
0000b0 78 17 45 3b 77 9d 6f bb d0 b9 55 bc 79 68 60 35
       0.0030073803 -0.0036562362 -0.013044789 8.359853e-07
0000c0 7b 38 ac 3b ba da 49 3c 4a d9 d2 3a ac 21 40 bb
       0.0052557564 0.012320215 0.0016086486 -0.0029316945
0000d0 94 45 34 bc 84 e6 71 ba 7b de 3e 3b 22 f9 ee 3a
       -0.011002917 -0.000922777 0.0029124308 0.0018232206
0000e0 6a 71 85 3b e9 41 6b bb 5c 6e 32 bc 19 99 58 ba
       0.004072358 -0.003589744 -0.01089057 -0.00082625594
0000f0 7c e1 5b ba 20 eb 3c bc d2 6d ac 3b 5b a3 ff 3b
       -0.0008387787 -0.011530668 0.005262115 0.007801456
000100 f8 2f 96 3c 2c cb 80 3b 1a d2 27 3c 99 0a 03 3d
       0.01833342 0.00393047 0.010242963 0.03199253
000110 01 1d a2 3a 80 d6 35 bb d2 f5 1d bc 20 82 80 ba
       0.0012368263 -0.002774626 -0.009641128 -0.0009804405
000120 e4 03 14 bb a4 e0 d8 bb 1e f2 65 ba 2e d1 da 38
       -0.0022585327 -0.006618576 -0.0008771735 0.00010434013
000130 a5 59 09 3b 9a bb 81 ba 80 4b be 3b 54 a8 e2 3b
       0.0020957973 -0.0009897829 0.00580734 0.006917039
000140 e8 cd 7d 3b 14 2b c5 ba 11 0c df bb 84 fe 5c 39
       0.0038727466 -0.0015042746 -0.0068068583 0.0002107565
000150 8d 0e 69 bb ad a6 54 bc 0f 48 95 ba e1 f0 cb bb
       -0.0035561651 -0.012979192 -0.0011389273 -0.0062237834
000160 fe b2 93 bc a4 00 1c bb ee 16 62 bb af 3e 3a bc
       -0.018029686 -0.0023804093 -0.003449853 -0.011367484
000170 0b c0 21 ba 93 3d a1 3a f3 c5 49 ba 8e 1d 64 3b
       -0.0006170279 0.0012301676 -0.0007697038 0.0034807655
000180 c8 7a df 3b 3e d1 9d 3c 99 2b e9 3a 82 fa 3a 3b
       0.0068200566 0.019264814 0.0017789482 0.0028530662
000190 15 38 32 3c 3d 9b dd b9 d2 fc 9c 3a 72 18 98 3b
       0.010877629 -0.00042268066 0.0011977202 0.004641586
0001a0 0d 2c 98 35 a3 45 ae ba 04 da 72 bc 94 35 c4 3b
       1.1337703e-06 -0.00132959 -0.014822487 0.0059878323
0001b0 fe 70 27 3b c1 97 96 3b 41 26 af 3a 1f ea 9c ba
       0.0025549526 0.004595727 0.0013362841 -0.0011971629
0001c0 81 a8 d2 bb 4d 51 0e 3a 06 03 14 bb 38 2e f6 bb
       -0.0064287786 0.0005428985 -0.002258481 -0.007512834
0001d0 02 d6 a3 38 35 56 05 3c cc d3 29 3c 40 30 f2 3b
       7.812308e-05 0.008138229 0.010365438 0.0073910058
0001e0 fc 31 06 3a 23 00 27 3a d4 95 2b 3a 5c b0 9c 3b
       0.00051191426 0.0006370565 0.00065454585 0.004781766
0001f0 16 cc 2b 3c ca 78 f7 3a 97 53 b7 3b fb 5f 75 3c
       0.01048567 0.0018880602 0.0055946815 0.014976497
000200 ed 40 e4 3a 64 e6 d0 39 42 a7 ac ba 23 28 d7 3a
       0.0017414369 0.00039844506 -0.0013172405 0.001641516
000210 f8 92 6e bb f2 81 1f bc b4 0a d6 ba 3a 20 3d bb
       -0.0036403518 -0.009735571 -0.0016330094 -0.002885832
000220 d7 1b 18 bc ac d0 9d ba b6 da 28 3c f7 81 81 3c
       -0.009283981 -0.0012040338 0.010306051 0.015809042
000230 b9 5e 0b 3c fb 38 c1 3b 63 4a e9 3b 73 ee a9 3b
       0.00850647 0.005896685 0.0071194633 0.005185896
000240 2a 35 91 3a 56 3e 41 3b 1c 79 39 3a 7d 13 83 ba
       0.0011078466 0.0029486618 0.00070752366 -0.0010000315
000250 d9 5f ac bb 42 3d 98 39 46 18 43 bb e0 fb f7 bb
       -0.0052604494 0.0002903734 -0.0029769107 -0.0075678676
000260 87 c6 98 ba 66 56 05 ba ac b5 59 bb b7 3d 15 3a
       -0.0011655845 -0.0005086422 -0.0033219857 0.0005693095
000270 b0 59 a5 3b 19 c1 8f 3c 2f c3 44 37 c4 8c 8a bb
       0.005046092 0.01754813 1.1727955e-05 -0.0042282064
000280 81 c6 5d bc 26 ab 5e ba 57 a6 87 3b 25 13 5c 3c
       -0.013536097 -0.0008494131 0.0041397023 0.013432299
000290 0a 0f 4f 39 8a 01 a0 bb dd 53 4c bc 70 af 65 bb
       0.00019746661 -0.004882996 -0.012471166 -0.0035047196
0002a0 69 73 8b 3b 68 22 1b 3c 02 9c d9 3a 34 af fb 3b
       0.0042557013 0.009468652 0.001660228 0.007680798
0002b0 d1 95 c7 3c 41 62 33 3a fc 52 e1 3b 7d 73 1f 3c
       0.02436343 0.0006842949 0.0068763476 0.009732124
0002c0 84 67 cc 3b 93 69 35 bb 44 68 9e bc 19 9f b7 3b
       0.006237926 -0.0027681335 -0.019336827 0.0056036827
0002d0 b7 e5 2b 39 f5 01 a2 bb b9 de 5e 3b a2 ee e9 3b
       0.00016393406 -0.004944081 0.0034007265 0.007139043
0002e0 58 7f 19 3c e4 24 c0 3b fd 03 1f 3b b3 22 70 3b
       0.00936874 0.0058637727 0.0024263852 0.0036641776
0002f0 23 3c f0 3a 9b 72 5a bb e1 a8 61 bc 57 08 a7 3a
       0.0018328469 -0.003333247 -0.013773174 0.0012743574

exp_avg_sq f4 [64, 3]
000000 90 2f d5 39 83 d8 6f 3b e7 74 e4 39 2d 59 31 39
       0.00040661963 0.0036597557 0.00043574648 0.00016913256
000010 85 1a 00 3a 90 d5 5f 39 9c ec 6f 39 ca dd 86 3b
       0.0004886764 0.00021346495 0.0002288096 0.004115795
000020 be a8 da 39 40 5f e1 38 89 c2 c5 3a ad 55 1e 39
       0.00041705923 0.00010746578 0.0015087883 0.00015099971
000030 3e 6a 61 3a d0 6c 5c 3b 79 7e 7c 3a 9c ca e8 37
       0.00085989 0.0033634193 0.0009631883 2.7750903e-05
000040 0f 4f 8c 39 d3 56 e1 37 ff 56 ac 39 65 15 d8 3b
       0.00026761784 2.686252e-05 0.00032871214 0.0065943473
000050 55 5c 0e 3a 38 38 aa 39 2d 07 91 3a cc fc 9e 39
       0.00054306287 0.00032466813 0.0011064761 0.00030324457
000060 b6 09 a8 38 9a a4 ff 39 5a 1f ad 38 aa a0 47 39
       8.012673e-05 0.00048760028 8.2551225e-05 0.00019037971
000070 94 f9 e9 3a 77 46 c0 39 d3 01 7f 39 81 f3 17 3b
       0.0017850869 0.00036673594 0.00024319375 0.002318591
000080 05 ad 86 39 82 c9 56 39 7b 23 ab 3b 7a ea c5 39
       0.0002568738 0.00020483698 0.0052227355 0.00037749467
000090 73 5f 47 3a f4 ea 61 3b 68 f7 8d 3a 54 32 c4 3a
       0.00076054706 0.0034472318 0.0010831179 0.0014968612
0000a0 fc 43 fe 3b d4 e4 17 3b 4b 4c 40 39 66 17 96 3b
       0.007759569 0.0023177164 0.00018338968 0.004580426
0000b0 df 40 70 39 ff 30 ac 39 42 b7 26 3b 35 87 fb 39
       0.0002291235 0.000328429 0.002543882 0.00047975188
0000c0 2a 83 98 39 10 0a d3 3b a1 7c 15 3a a4 1b fe 39
       0.00029089424 0.0064404085 0.000570247 0.0004846725
0000d0 a5 ae ce 3a 72 1f dd 39 76 49 3f 3a 77 db ae 3b
       0.0015768601 0.00042175833 0.00072970183 0.005336221
0000e0 ca 22 4c 3a a7 8f 14 3a 82 de 20 3b 15 57 21 3a
       0.00077871664 0.0005667158 0.0024546687 0.0006154639
0000f0 23 8f 0f 3a a0 d9 24 3c 41 a0 a9 39 74 13 14 3a
       0.0005476346 0.0100616515 0.0003235359 0.00056486507
000100 20 b2 a0 3b 05 61 2c 3a f9 9d 02 3a f8 c1 28 3c
       0.0049040467 0.00065757363 0.0004982646 0.010300152
000110 b5 3c 54 3a d0 73 87 39 8b 4d 7e 3a d6 8a 8d 39
       0.0008096204 0.00025835494 0.0009700886 0.00026997057
000120 5e 86 79 39 1c aa 7f 3a c1 e3 81 39 9a 65 0d 38
       0.00023796546 0.00097528263 0.00024774487 3.3711643e-05
000130 34 f1 d5 39 6e bd 16 38 6a 5c 17 3a 62 ab 77 3b
       0.00040806236 3.5939207e-05 0.00057739636 0.003779136
000140 94 78 87 3a 17 bd 1e 39 65 df 29 3a f4 e5 26 39
       0.0010335618 0.00015138496 0.0006480127 0.00015916658
000150 36 86 c3 39 7a 2e a7 3a 84 0f c9 39 09 56 77 3a
       0.00037293293 0.001275494 0.00038349268 0.00094351225
000160 bb 8d 86 3b 66 4d 8d 3a 7e 7f 06 3a 16 98 06 3b
       0.004106251 0.0010780513 0.0005130692 0.0020537428
000170 34 14 07 3a c6 66 96 39 35 3b 87 3b df 6d 6c 39
       0.0005152852 0.00028686802 0.004126931 0.00022547644
000180 f1 60 8e 39 c4 f9 a4 3b 84 ca ea 39 f3 48 1f 39
       0.00027156578 0.005034657 0.00044782844 0.00015190597
000190 d8 5f f4 3a 0f 9f e2 38 49 ed 3f 38 a8 74 02 3a
       0.0018644286 0.00010806147 4.5758938e-05 0.00049764896
0001a0 f9 3b 0c 38 0d ee 33 3a df 46 54 3c fa 63 d2 39
       3.3434455e-05 0.00068637804 0.01295635 0.0004012881
0001b0 78 02 00 39 39 21 f8 3a 3c e3 66 39 25 a7 5f 39
       0.00012207951 0.00189308 0.0002201916 0.00021329203
0001c0 a7 98 67 3a bd 71 58 39 e3 4d cf 39 ba 40 de 3a
       0.00088346977 0.00020641736 0.00039540147 0.0016956546
0001d0 92 dc dd 39 42 89 9f 3a 45 50 b8 3b 71 ee e7 3a
       0.00042316742 0.0012171643 0.0056248032 0.0017694962
0001e0 32 c8 03 38 60 8a 51 39 bf 1b c9 37 a2 08 89 39
       3.141928e-05 0.00019983342 2.3973987e-05 0.00026137108
0001f0 b9 f4 9e 3b 83 39 fa 39 36 79 9d 39 d9 f8 63 3b
       0.0048509506 0.00047726565 0.00030035683 0.0034785776
000200 ee 96 df 39 e6 4a d7 37 58 1a 97 39 9f db d7 37
       0.00042646326 2.5664875e-05 0.00028820592 2.5732266e-05
000210 bb 29 3a 3a f7 a6 0c 3b 47 92 00 3a 2a e2 83 39
       0.0007101555 0.0021461823 0.00049046095 0.00025154772
000220 03 67 85 3a f0 66 91 39 7a 5d 9a 3a 00 a8 b0 3b
       0.0010177795 0.0002773325 0.0011777126 0.005391121
000230 e6 4b e1 3a bb 60 60 3a b3 5b 6e 3b 68 38 b0 3a
       0.0017188757 0.0008559336 0.0036370575 0.0013444545
000240 cb ba c4 37 37 10 44 39 58 35 89 37 02 0c 41 39
       2.3452003e-05 0.00018698057 1.6356513e-05 0.00018410388
000250 65 95 49 3a ed eb 47 39 9a 52 b6 39 24 67 d2 3a
       0.0007689803 0.00019066008 0.00034775288 0.0016052467
000260 9a cc f7 39 fb 18 f8 38 5d d1 17 3a 0b 85 ec 38
       0.0004726395 0.000118302145 0.00057913904 0.00011278138
000270 6e 20 50 39 65 e1 39 3b 85 57 84 39 1d 4f 14 3a
       0.00019848507 0.0028363105 0.0002524221 0.0005657541
000280 3a b2 19 3b 17 12 34 3a d0 78 db 38 a3 96 1d 3b
       0.0023452179 0.00068691507 0.00010465237 0.0024046085
000290 74 b4 36 39 11 87 0e 3a eb 97 d9 3a ff f7 02 3a
       0.00017424097 0.00054369966 0.0016601061 0.0004996061
0002a0 84 0c 57 39 e0 9e 85 3b d6 69 c5 39 cc 48 9b 39
       0.0002050866 0.0040777773 0.00037653622 0.00029618142
0002b0 dd 10 c5 3b a3 08 fb 39 10 fa 55 3a 5b 43 79 3b
       0.006013973 0.00047880886 0.00081625674 0.0038034532
0002c0 20 e9 9e 3a 72 12 43 3a 5c 2b 68 3c df c4 fa 39
       0.001212392 0.0007441408 0.014170494 0.00047830396
0002d0 ba 14 0c 3a 43 ea ed 3b 6f 8c bc 39 93 f6 86 3a
       0.00053436647 0.007260592 0.00035962785 0.0010296874
0002e0 3a 11 9a 3b 46 ae cb 3a 7e 86 e2 38 5e 8e 06 3a
       0.0047017606 0.0015539608 0.00010801571 0.00051329087
0002f0 1c 73 0b 39 c9 9e 50 39 c0 38 3b 3b 44 1d ae 39
       0.00013298955 0.00019895578 0.0028567761 0.0003320967

exp_avg f4 [64, 64]
000000 4c f6 c5 b9 0d b7 a5 38 d8 87 50 3a 3b 5c c5 39
       -0.00037758274 7.901909e-05 0.00079548126 0.00037643485
000010 f8 1e e4 b8 a8 83 c2 38 62 1c 34 3a 33 c9 7c 39
       -0.000108776556 9.275164e-05 0.00068706844 0.00024107545
000020 55 b4 ae 38 7d 41 7e 37 ef 48 88 b9 84 f0 11 3a
       8.330556e-05 1.5154827e-05 -0.0002599428 0.00055671507
000030 8b 1c 34 b9 b4 61 62 38 5e ca bb b9 c4 a7 50 b9
       -0.00017176771 5.3973592e-05 -0.00035818195 -0.00019898923
000040 ab 25 37 3a 68 85 28 39 b7 18 ba b9 0e 2e 0a b9
       0.0006986509 0.00016071426 -0.000354951 -0.00013177862
000050 c1 cf 1d ba a2 6e 6e 39 fe 10 2a 3a 8c 2f 86 39
       -0.00060200325 0.00022738663 0.00064875174 0.00025593897
000060 8f bd 8a b8 a0 be 22 39 2b a7 85 38 f0 14 a4 39
       -6.615661e-05 0.00015520537 6.373072e-05 0.00031296117
000070 59 63 71 39 e2 f1 51 b9 2b cc e2 b8 69 6f ee b9
       0.00023020561 -0.00020021902 -0.00010814549 -0.00045477904
000080 37 fb 24 3a fe 95 87 39 70 57 d9 38 b1 bc 1f ba
       0.00062935374 0.0002586096 0.00010363653 -0.0006093486
000090 85 8c 37 3a c9 1a 9c 39 63 df a9 b8 8e d8 fd b8
       0.0007001835 0.00029774595 -8.100157e-05 -0.000121043166
0000a0 7f 67 8d 39 9b 1f 3d 3a 4e 2f bd 39 13 88 61 b8
       0.00026970726 0.00072144874 0.00036084134 -5.377091e-05
0000b0 e1 20 eb b7 b0 56 90 39 80 80 05 38 a0 83 5d b9
       -2.8029493e-05 0.00027530408 3.1829346e-05 -0.00021125237
0000c0 f5 3c 3f 39 a4 9c a4 38 7a 26 96 b8 e6 de a3 39
       0.00018237888 7.849306e-05 -7.159724e-05 0.00031255855
0000d0 b8 65 e1 39 16 9c 11 b9 35 0c fd 39 d6 eb 22 39
       0.0004299113 -0.00013886424 0.00048265015 0.0001553738
0000e0 d5 91 32 3a 1c 86 20 3a 15 7c 35 b9 87 d7 1c ba
       0.0006811892 0.00061234995 -0.0001730773 -0.0005983044
0000f0 6a e0 02 ba 18 d6 e8 b8 a5 eb a8 b8 c3 7c 13 b9
       -0.0004992547 -0.000111025 -8.0547565e-05 -0.0001406549
000100 19 97 c5 b9 cd b0 d5 37 f8 bb a2 39 31 e6 cf 38
       -0.00037687345 2.5473908e-05 0.00031039095 9.913406e-05
000110 39 5b 92 38 ee 41 07 39 25 5c 79 39 4a 95 7a 39
       6.978814e-05 0.00012899164 0.00023780817 0.00023897472
000120 6b a0 fb 38 8b 68 db b8 1e 36 7b b9 44 68 2a 39
       0.00011998493 -0.000104622064 -0.00023957386 0.00016251305
000130 7e ae bd b9 eb 3e 77 b9 c1 53 16 b9 16 22 d7 36
       -0.00036178896 -0.00023579194 -0.00014336316 6.4114674e-06
000140 87 b2 84 39 31 4f 51 39 93 9b df b9 3b 76 30 38
       0.00025310015 0.00019961294 -0.00042649786 4.207178e-05
000150 a1 1f a2 b9 27 4a 93 b8 67 45 46 39 90 e1 70 39
       -0.00030922613 -7.023318e-05 0.00018908606 0.00022972212
000160 77 d6 a3 38 5e 25 be 38 16 90 33 b9 94 c5 85 39
       7.812393e-05 9.066866e-05 -0.00017124446 0.00025514944
000170 1c 14 72 39 cb 7e 1b 38 5d 2e 6f 38 9f 16 a3 b9
       0.0002308641 3.7072965e-05 5.702522e-05 -0.00031106637
000180 d2 72 66 39 43 8f 9d 38 98 54 88 38 d1 02 a5 b9
       0.00021977283 7.513028e-05 6.500742e-05 -0.0003147335
000190 e7 ff 8d 39 25 15 85 39 5c 78 20 38 c8 cb b5 b9
       0.00027084278 0.0002538349 3.8259066e-05 -0.0003467484
0001a0 c2 d5 6e 39 c3 66 8b 39 a6 4e 22 38 84 2a 7a b8
       0.0002277708 0.0002658871 3.8697057e-05 -5.964424e-05
0001b0 66 d8 70 38 79 fb 71 39 c2 56 72 b9 44 b5 d0 b9
       5.7421996e-05 0.00023077232 -0.00023111238 -0.00039807905
0001c0 81 4d 36 39 ff 22 1c 39 ca b4 ee 36 4b 8a 82 39
       0.00017385745 0.00014890356 7.1139993e-06 0.00024898569
0001d0 ce fd cc 38 26 bc 3d 38 c3 a2 32 39 d0 18 2d 39
       9.774753e-05 4.523634e-05 0.00017036036 0.00016507809
0001e0 fa f2 84 39 96 44 40 39 c3 4b c6 b9 f9 09 85 b9
       0.00025358034 0.00018336097 -0.0003782195 -0.00025375167
0001f0 eb 00 bb b9 f1 1a 9a b9 0c cb 0a b9 b9 ba a7 b7
       -0.00035668103 -0.00029393242 -0.00013236346 -1.99949e-05
000200 16 12 41 b9 a0 fc 18 38 91 83 c5 39 b1 1c 31 39
       -0.00018412652 3.64749e-05 0.00037672793 0.00016890724
000210 da 11 18 b8 ab ac 6a 38 ca 3f a7 39 d5 70 11 39
       -3.625625e-05 5.5950757e-05 0.0003190025 0.00013870311
000220 68 b1 53 38 12 99 9d b6 96 75 06 b9 68 90 84 39
       5.0471543e-05 -4.6967843e-06 -0.0001282304 0.00025284593
000230 42 bf d6 b8 ed 45 10 b6 8c 35 28 b9 8e 61 ac b8
       -0.0001023994 -2.1498374e-06 -0.00016041676 -8.21977e-05
000240 0b 2a ab 39 eb 9c cb 38 70 eb 3b b9 b5 30 52 b8
       0.00032646986 9.7090226e-05 -0.00017921417 -5.0113264e-05
000250 b7 c6 8b b9 55 3c b3 38 49 b1 9a 39 d5 59 15 39
       -0.000266602 8.546623e-05 0.00029505257 0.00014243212
000260 3c cd 95 b7 3b b0 9f 38 3b 26 0a 37 d1 a5 33 39
       -1.7857754e-05 7.614536e-05 8.234342e-06 0.00017132542
000270 d1 ce 0a 39 b4 d7 a5 b8 f1 2d 1d b8 0c 07 5c b9
       0.0001323775 -7.907991e-05 -3.7474503e-05 -0.0002098346
000280 1f 26 99 39 97 a1 f3 38 aa 2c 56 38 c0 6f 8d b9
       0.00029210837 0.000116172414 5.1063173e-05 -0.00026976876
000290 64 2d ad 39 fb fe 2c 39 d9 62 ee b7 8a e6 ab b8
       0.0003303095 0.00016498186 -2.841784e-05 -8.196857e-05
0002a0 a6 97 1a 39 f5 46 b1 39 6d 94 21 39 93 35 ed b7
       0.00014743078 0.00033812938 0.0001540945 -2.8277549e-05
0002b0 c3 4c 83 b6 e2 be 1d 39 7a ce 38 b7 c6 e0 fd b8
       -3.9130405e-06 0.00015043796 -1.1015329e-05 -0.000121058474
0002c0 89 7a d3 38 2f f8 5f 38 b8 0f f7 b7 b5 da 31 39
       0.00010084088 5.3398482e-05 -2.9452014e-05 0.0001696151
0002d0 19 14 48 39 e9 68 59 b8 ba 3e 6a 39 8c 60 b9 38
       0.00019080973 -5.1834537e-05 0.00022339346 8.839471e-05
0002e0 e5 71 a7 39 f7 4f 92 39 11 39 db b8 68 63 89 b9
       0.0003193758 0.00027906868 -0.00010453363 -0.0002620474
0002f0 80 a2 70 b9 cf a6 9b b8 66 00 43 b8 b4 29 80 b8
       -0.0002294872 -7.4220465e-05 -4.6491994e-05 -6.1112834e-05
000300 6f 9f ae b9 8c 18 a6 38 d9 d8 54 3a 04 f3 c5 39
       -0.00033306653 7.920069e-05 0.0008119471 0.0003775583
000310 2c 8e da b8 23 13 c2 38 8a 0e 37 3a c0 f8 81 39
       -0.000104215316 9.254205e-05 0.00069830625 0.0002479013
000320 e0 2a ad 38 e8 a9 98 37 b4 a1 75 b9 59 87 13 3a
       8.257269e-05 1.819893e-05 -0.0002342526 0.00056277734
000330 d5 cf 19 b9 c7 5d 74 38 48 cf ac b9 8c f8 49 b9
       -0.0001466864 5.826147e-05 -0.00032960833 -0.00019261445
000340 24 52 3a 3a 80 52 2c 39 07 90 a3 b9 5d b0 07 b9
       0.0007107577 0.00016433932 -0.0003119709 -0.00012940304
000350 b5 c7 0c ba 32 49 6c 39 b9 5c 2c 3a a0 49 89 39
       -0.0005370335 0.00022533981 0.0006575096 0.0002618553
000360 c9 c7 88 b8 94 8b 21 39 46 57 8b 38 c4 57 a8 39
       -6.522198e-05 0.00015406153 6.6442924e-05 0.00032108848
000370 35 d2 77 39 64 02 4b b9 e7 bd d7 b8 4e cd d4 b9
       0.00023634064 -0.00019360479 -0.00010287371 -0.00040588755
000380 d1 72 27 3a cb da 86 39 dc db d5 38 d5 6b 0e ba
       0.00063876534 0.00025721485 0.000101975835 -0.00054329383
000390 ca ed 3a 3a ea 54 a0 39 d9 82 a0 b8 1d 8f d8 b8
       0.000713077 0.00030580844 -7.653767e-05 -0.000103263395
0003a0 3a 58 90 39 52 8b 40 3a 63 16 bd 39 76 3f 4e b8
       0.00027531554 0.0007344979 0.0003606557 -4.917333e-05
0003b0 4b c1 d4 b7 18 74 93 39 d8 73 16 38 3a 5e 3f b9
       -2.5362378e-05 0.00028124521 3.5870675e-05 -0.00018250282
0003c0 33 2b 41 39 ff 36 a6 38 98 42 96 b8 7f ce a7 39
       0.00018422007 7.925741e-05 -7.1649614e-05 0.00032006574
0003d0 c1 6f e2 39 c6 d7 0a b9 30 97 ff 39 e0 f9 24 39
       0.00043189342 -0.00013241087 0.00048750034 0.00015733344
0003e0 31 a8 35 3a 90 92 22 3a b5 8f 1b b9 b5 d6 0c ba
       0.00069296645 0.0006201649 -0.00014835487 -0.000537257
0003f0 86 b3 e7 b9 8d 80 cd b8 25 9e 97 b8 fa 47 10 b9
       -0.0004419351 -9.799106e-05 -7.229698e-05 -0.00013759724

exp_avg_sq f4 [64, 64]
000000 e0 c2 eb 37 3a 63 84 34 af 47 b9 37 b9 71 b4 36
       2.8104929e-05 2.4659113e-07 2.2087099e-05 5.377657e-06
000010 7c c5 18 35 c6 9a cd 35 e5 42 8d 37 17 ef b9 36
       5.691179e-07 1.5318735e-06 1.683966e-05 5.5412634e-06
000020 71 a0 b3 35 1a 7b 2e 35 fe 5c 34 37 a4 be 3b 37
       1.3383234e-06 6.499919e-07 1.07504875e-05 1.1190456e-05
000030 b6 ed 6b 37 bd 89 4b 36 ce 2c 31 37 e8 ac bc 35
       1.4062438e-05 3.0329531e-06 1.0560454e-05 1.4057414e-06
000040 64 2d 92 37 98 fa 6f 36 fc dc fd 37 f1 9d 0f 35
       1.7425693e-05 3.575964e-06 3.0262854e-05 5.3501486e-07
000050 ce 29 44 38 e8 f3 d1 35 05 ca 75 37 79 f4 b7 36
       4.6768975e-05 1.56427e-06 1.4650174e-05 5.4822854e-06
000060 a7 e2 da 34 ee 06 cf 35 54 47 ce 35 7a 4e ef 36
       4.0770576e-07 1.5424719e-06 1.5368955e-06 7.131891e-06
000070 ab 8e ac 36 cd 75 b3 35 2c 51 09 35 b2 5b f5 37
       5.142608e-06 1.3370824e-06 5.11546e-07 2.9248975e-05
000080 97 b8 74 37 96 c5 44 36 b8 e8 50 35 61 36 4b 38
       1.45865115e-05 2.9321286e-06 7.782469e-07 4.8449616e-05
000090 40 2a 96 37 79 ce e5 36 21 75 98 34 ea f8 35 37
       1.7901068e-05 6.8487684e-06 2.839743e-07 1.08463955e-05
0000a0 bd cc c0 36 39 dc 9b 37 16 91 91 36 80 a1 06 35
       5.7458806e-06 1.8579989e-05 4.338227e-06 5.0153903e-07
0000b0 dd 43 4c 34 2e 9d c3 36 de 79 4a 36 ba fa 98 37
       1.9023669e-07 5.829751e-06 3.0171282e-06 1.8236566e-05
0000c0 a8 bc 5a 36 8a cc ee 35 73 8b 0d 34 a5 4d e9 36
       3.2594344e-06 1.779191e-06 1.318238e-07 6.95298e-06
0000d0 56 62 de 36 6f e8 42 35 8c ff 1b 37 78 75 33 36
       6.6275634e-06 7.260887e-07 9.298219e-06 2.6741454e-06
0000e0 04 f6 8d 37 3a fd 5f 37 f3 c3 7b 37 3a 23 28 38
       1.692307e-05 1.3350795e-05 1.5006389e-05 4.008713e-05
0000f0 90 13 23 38 f8 3b 00 37 18 40 00 36 82 93 4f 35
       3.8880447e-05 7.643357e-06 1.9110794e-06 7.732816e-07
000100 fb 40 3e 36 b8 f6 cd 32 23 bb 0a 36 97 64 15 35
       2.835003e-06 2.3977336e-08 2.067253e-06 5.5653203e-07
000110 81 00 a7 33 69 05 0a 34 60 10 dd 35 76 8a e0 34
       7.776635e-08 1.285422e-07 1.6470549e-06 4.1823995e-07
000120 a6 f1 f3 33 79 6b a5 33 0f 1b 8e 35 09 b0 99 35
       1.1359525e-07 7.7029604e-08 1.05877e-06 1.1450621e-06
000130 2c 7e c2 35 36 6c cd 34 8b 79 8c 35 03 24 2d 34
       1.4490847e-06 3.826296e-07 1.0466186e-06 1.6124982e-07
000140 b1 ac e1 35 92 1f 96 34 07 cd 4d 36 54 5f 9e 33
       1.6814066e-06 2.7962648e-07 3.0666722e-06 7.3747884e-08
000150 94 86 9e 36 5b 15 83 34 4d 24 ca 35 93 d4 e2 34
       4.724434e-06 2.441619e-07 1.5060738e-06 4.2250448e-07
000160 e5 cf 68 33 fc f2 12 34 bd 56 5d 34 18 d5 11 35
       5.420579e-08 1.3685707e-07 2.0613784e-07 5.43268e-07
000170 cf 3d d2 34 d9 50 31 34 bf 29 95 33 12 f0 44 36
       3.916052e-07 1.6513822e-07 6.945947e-08 2.9346015e-06
000180 07 c9 be 35 1a c3 9e 34 0b 3e 95 33 51 52 a4 36
       1.421461e-06 2.9571748e-07 6.949639e-08 4.8971638e-06
000190 f7 26 e2 35 57 13 0b 35 1f e7 25 33 52 7d 97 35
       1.6849652e-06 5.180968e-07 3.862726e-08 1.128685e-06
0001a0 e9 bb ef 34 7c ac ee 35 a4 61 08 35 14 79 4c 33
       4.4653942e-07 1.7782581e-06 5.0806034e-07 4.760757e-08
0001b0 50 be c7 32 54 04 f3 34 15 1e c3 34 49 09 fb 35
       2.3253193e-08 4.5265426e-07 3.6343468e-07 1.870366e-06
0001c0 bd 04 8d 34 09 4b 20 34 bf 1b 94 32 e0 a9 0f 35
       2.6266744e-07 1.4928459e-07 1.7242085e-08 5.351885e-07
0001d0 06 53 3e 35 1d 6b ca 33 7a 10 72 35 cb 7e 67 34
       7.090133e-07 9.425842e-08 9.0176e-07 2.1559678e-07
0001e0 a3 cb d8 35 74 93 b6 35 80 bd cf 35 1b 72 87 36
       1.615252e-06 1.3602971e-06 1.5477854e-06 4.036597e-06
0001f0 06 c7 83 36 e9 f9 51 35 9a 6a 48 34 4b ad af 33
       3.9272736e-06 7.8222234e-07 1.8665233e-07 8.180594e-08
000200 51 b2 01 37 06 28 8f 33 3a e1 c7 36 31 2c c6 35
       7.730517e-06 6.6662366e-08 5.956882e-06 1.4765011e-06
000210 26 3a 22 34 02 ac d5 34 b6 da 99 36 58 45 be 35
       1.510858e-07 3.9799494e-07 4.5852166e-06 1.4176285e-06
000220 62 02 bb 34 76 20 37 34 56 e7 44 36 2f 18 4e 36
       3.4833198e-07 1.7055012e-07 2.9340931e-06 3.0710469e-06
000230 f4 32 80 36 40 4e 57 35 8c 5a 41 36 ef 1d cd 34
       3.820629e-06 8.020761e-07 2.8811946e-06 3.8206005e-07
000240 84 a6 9e 36 da 18 76 35 f0 9b 0b 37 71 fb 1a 34
       4.728152e-06 9.1678305e-07 8.321353e-06 1.4433841e-07
000250 57 3a 58 37 f1 3a ed 34 74 23 87 36 78 7d bd 35
       1.2888187e-05 4.4187576e-07 4.027441e-06 1.4118114e-06
000260 9e 68 e3 33 8b 4c dd 34 ab 5e d9 34 3e 68 f6 35
       1.0589541e-07 4.122015e-07 4.048828e-07 1.8358767e-06
000270 cb d1 b0 35 55 ca c1 34 31 65 13 34 57 02 07 37
       1.317408e-06 3.6096267e-07 1.3727255e-07 8.047172e-06
000280 0b 2f 85 36 93 af 57 35 bf 9a 5f 34 97 14 60 37
       3.9691854e-06 8.0349236e-07 2.082479e-07 1.3356234e-05
000290 f9 38 a2 36 f9 1e ec 35 e8 bc a5 33 8c a1 44 36
       4.8346087e-06 1.7592384e-06 7.717773e-08 2.9300309e-06
0002a0 f2 5a c7 35 b2 01 a9 36 71 95 a2 35 7a 9d 10 34
       1.4853124e-06 5.03679e-06 1.2113434e-06 1.3468335e-07
0002b0 e2 57 55 33 cf 1f ca 35 c9 5b 56 35 64 ce a6 36
       4.9672856e-08 1.505943e-06 7.985478e-07 4.9712125e-06
0002c0 82 7b 63 35 5f c5 f5 34 5f 5f 1a 33 c2 d6 f0 35
       8.474382e-07 4.5778413e-07 3.594266e-08 1.7943896e-06
0002d0 62 9a f5 35 a2 d4 52 34 76 a8 29 36 59 0d 3a 35
       1.8298854e-06 1.963513e-07 2.528102e-06 6.9309823e-07
0002e0 17 d3 99 36 31 dc 75 36 b9 cf 88 36 40 af 38 37
       4.5843294e-06 3.6636013e-06 4.077298e-06 1.1008058e-05
0002f0 9f e9 33 37 fb 25 0a 36 0f 99 09 35 34 40 62 34
       1.0723626e-05 2.058571e-06 5.1259207e-07 2.1071247e-07
000300 a2 b5 01 38 bc cb 91 34 2c 3e cc 37 37 ea c6 36
       3.0925155e-05 2.715659e-07 2.4347646e-05 5.928126e-06
000310 02 8c 23 35 d5 e5 e1 35 55 bf 9b 37 bc 77 cc 36
       6.092597e-07 1.6830696e-06 1.8566536e-05 6.0936127e-06
000320 45 68 c5 35 03 20 3e 35 be b4 46 37 c9 fd 4e 37
       1.470799e-06 7.08271e-07 1.1843802e-05 1.2337646e-05
000330 22 6a 81 37 1b 97 5c 36 6b 62 43 37 5e c3 ce 35
       1.542742e-05 3.287051e-06 1.164582e-05 1.5405055e-06
000340 b1 25 a1 37 8c cd 83 36 29 81 0b 38 fb b4 1b 35
       1.9210247e-05 3.928033e-06 3.3260472e-05 5.800536e-07
000350 db 12 58 38 27 27 e5 35 c4 80 87 37 bc 69 ca 36
       5.1515974e-05 1.7073224e-06 1.6153215e-05 6.032378e-06
000360 22 45 eb 34 83 40 e4 35 28 4b df 35 75 b7 03 37
       4.3822462e-07 1.7006099e-06 1.6636668e-06 7.850923e-06
000370 36 be bd 36 d8 4f c3 35 b9 52 13 35 5e 22 07 38
       5.6547824e-06 1.455187e-06 5.4882145e-07 3.2218515e-05
000380 68 e9 86 37 c9 03 59 36 a2 5e 66 35 8e d4 5f 38
       1.6082733e-05 3.2337723e-06 8.5819386e-07 5.33653e-05
000390 6f 8b a5 37 f3 eb fc 36 7f 00 a4 34 50 23 47 37
       1.9734462e-05 7.5376533e-06 3.054774e-07 1.1869546e-05
0003a0 4d 3d d4 36 b2 d5 ab 37 fb 52 a0 36 e9 96 14 35
       6.3252287e-06 2.0484298e-05 4.778032e-06 5.53539e-07
0003b0 41 f6 59 34 98 52 d7 36 e7 9a 5b 36 68 d1 a7 37
       2.0299287e-07 6.4171145e-06 3.2723708e-06 2.0005464e-05
0003c0 86 b5 70 36 14 e5 02 36 2c 17 1b 34 de 6d 00 37
       3.5868447e-06 1.950485e-06 1.444393e-07 7.654975e-06
0003d0 fb 1f f5 36 e8 ac 52 35 c7 02 2c 37 95 46 45 36
       7.305292e-06 7.848271e-07 1.0252646e-05 2.9396372e-06
0003e0 41 82 9c 37 f8 f7 76 37 8b 01 8a 37 94 3d 39 38
       1.8657303e-05 1.4720477e-05 1.64516e-05 4.4164786e-05
0003f0 f3 94 33 38 6b 4a 0c 37 98 1d 0d 36 d8 7c 64 35
       4.2815645e-05 8.361977e-06 2.1027863e-06 8.511829e-07

exp_avg f4 [1, 64]
000000 f2 8c 26 3b 19 5e d4 3a b4 7e 2d 3b b0 ab 22 3b
       0.00254136 0.001620236 0.0026473226 0.0024821572
000010 4a 9e a0 3c be 9a 31 3b 26 9d 90 3b 92 48 9c 3b
       0.019606728 0.002710029 0.004413265 0.0047693932
000020 f9 d6 92 3b b0 4e 9c 3b 2f e4 8f 3b dd bf 8c 3b
       0.004481193 0.0047701225 0.0043912153 0.004295333
000030 2a 0d 26 3b bc 5b 9c 3c 17 9b c7 ba 17 d0 b1 3a
       0.0025337436 0.019086711 -0.0015228715 0.0013566044
000040 b9 01 58 3b e9 01 9c 3c ba 83 81 3b 17 37 20 3b
       0.003296001 0.01904388 0.0039524706 0.0024446899
000050 bc c1 da 3a 25 72 8e 3c 7c 3d b9 3a 2c 09 b4 3a
       0.0016689817 0.017388413 0.0014132704 0.0013735644
000060 03 c0 3b 3b 78 3c 21 3b 13 c2 39 3b 01 7f 6c 3b
       0.0028648383 0.0024602693 0.0028344437 0.0036086442
000070 f8 7a 25 3b 1e 56 ec 3a 37 18 e9 3a 56 6d e2 3a
       0.0025250297 0.0018031036 0.0017783706 0.0017275016
000080 5f b2 2b 3b 93 14 9a 3b d7 c3 7e 3b 5d 8b 3a 3b
       0.0026198847 0.0047021597 0.0038874054 0.0028464415
000090 05 9b be 3c b4 be cb 3a de 60 78 3d 1f 17 03 3c
       0.023267278 0.0015544505 0.060639255 0.008001118
0000a0 92 d0 15 3b 7b 9a 4c 3b 81 f7 59 3b 52 ad 37 3c
       0.0022859913 0.0031220007 0.0033259096 0.011210756
0000b0 f2 d5 7f 3b 81 0f 28 3b 70 e0 07 3b 90 a7 ae 3c
       0.0039037433 0.0025644007 0.002073314 0.021320134
0000c0 8c 03 89 3c d3 6c 38 3b 8f ad af 3d 80 7d 95 3c
       0.016725324 0.0028141036 0.085780255 0.01824832
0000d0 13 1c 1b 3b 22 ab 48 3b 14 e6 1c 3b aa 37 56 3c
       0.0023667857 0.0030619581 0.0023940848 0.013074795
0000e0 c5 f5 79 3b f4 2c 29 3c b2 13 f7 3a 85 29 5e 3b
       0.0038140875 0.010325659 0.0018850474 0.003389926
0000f0 7e 9b 00 3b f5 ba 04 3b 00 34 c0 3c 0c ca 84 3b
       0.001962393 0.0020253037 0.023462296 0.004052406

exp_avg_sq f4 [1, 64]
000000 ec 16 21 39 3b 55 cb 38 1b 64 31 39 87 bd 25 39
       0.00015362696 9.69567e-05 0.00016917328 0.0001580623
000010 6c ba cd 3c 4d 54 10 3c 98 48 0c 3c ad 12 10 3c
       0.025113307 0.008809161 0.00856223 0.008793515
000020 36 51 0b 3c c2 6e bc 3b 6e 65 bd 3b 7f 34 03 3c
       0.008503249 0.005750508 0.0057799136 0.0080081215
000030 84 20 46 39 5a b4 d2 3a 5b d6 02 39 16 cb 16 39
       0.00018894864 0.0016075477 0.0001247762 0.0001438077
000040 10 02 1f 3c 6e b8 68 3c af fe 95 39 d0 a9 25 3c
       0.009705082 0.014204128 0.0002860925 0.010111287
000050 af 27 02 39 55 ce 2b 3c 3a c3 ee 38 8a 8e fb 38
       0.0001241255 0.010486205 0.00011385088 0.00011995163
000060 54 bf 28 39 e8 85 14 3c 4c a6 28 39 65 6b 0e 3c
       0.00016093004 0.009065129 0.00016083679 0.008692597
000070 2f 57 1b 39 fb 80 ec 38 b0 3a be 38 d9 86 24 39
       0.0001481443 0.000112773814 9.0708374e-05 0.00015690493
000080 bc 35 03 3c 95 ac e2 3b f4 08 1e 3c af 49 03 39
       0.008008417 0.006917546 0.009645689 0.00012520583
000090 8d d1 16 3d 86 b2 ef 38 f8 34 1b 3d 84 d0 bb 39
       0.036820937 0.00011429661 0.03789231 0.00035822776
0000a0 a6 bf b9 3b 13 21 c5 38 e8 5f 0a 3c 9f 3f 5a 3b
       0.005668598 9.3998526e-05 0.008445717 0.0033302081
0000b0 48 87 1a 3c cc 48 bb 38 31 c4 3d 38 14 8a 76 3c
       0.009431668 8.930414e-05 4.524383e-05 0.015047569
0000c0 ed 66 05 3c 21 87 1d 39 6f 31 a1 3c 91 36 27 3b
       0.008142215 0.00015023026 0.019676892 0.0025514702
0000d0 c8 c9 5d 39 f3 ab e5 3b 79 2b 30 39 58 11 77 3a
       0.00021151372 0.0070090233 0.00016800863 0.00094248867
0000e0 c5 dc e5 3b 01 1d 39 3b 0d a6 38 39 ee 65 1b 3c
       0.007014843 0.0028246047 0.00017609466 0.009484751
0000f0 0d af 45 39 6e c6 05 3c 88 86 15 3d 6a 57 01 39
       0.00018852596 0.008164985 0.036505252 0.00012334963
