Scene/result/SNH_750_1750_dt01/nc_FEM_999999999.pt (torch, 57090 bytes, 9 tensors)

linear_gelu_stack.0.weight f4 [64, 3]
00000000: 88d6 a63d d697 b03f b5b5 cc3d 58db 5fbf
00000010: fdb8 103f 709c d63d 0410 54be 36f7 eabe
00000020: 265b 2ebf 4730 1abf 1239 47be 4903 753f
00000030: 9087 1e3e bde4 14bf 3cb5 bf3f e7e2 373f
00000040: 286e 27bf 9ded b23e 4fc7 b7be cd31 14be
00000050: 721f abbf 9776 023f 5fb1 6ebf c2ea 9c3f
00000060: 1d0e 5b3f 7839 34bf 9faf 203d 1181 63bf
00000070: 4fc0 2b3f d0b5 cdbe 7325 3bbf 7a3a 723f
00000080: 74d9 b7bd 41cb 1abf d02f e23e c431 dcbe
00000090: 593b 00bf 83b8 a03f 3860 4fbf 6435 31bf
000000a0: 0ae6 283f 9e3d d6bf a71d 07bf b96d c63e
000000b0: acf1 f43e 289e 813f 1c60 0fbf b780 133f
000000c0: 12e3 03bf e0f1 a73e 1027 a5be 5d64 273f
000000d0: b6c7 6abf a188 7b3f 1591 083f 8cf1 9b3f
000000e0: c0cc 19bf 10e0 753f 0d57 65bf f1fe 043f
000000f0: ea2d df3e a34d 003f 0906 bc3e bfcd 1cbf
00000100: b2da 543f e8da cebf a788 89be fb4f bc3e
00000110: 476a 81bf 37f7 3dbe 5a46 02bf b6fd af3f
00000120: a325 713f c83c 77bf bfa9 563f 23ee d93d
00000130: 7fe8 05be fac4 00be 91ac 58bf c70d 6b3f
00000140: 841b 85bf 6b95 103e 625b 33bf a36c 103f
00000150: 4e39 8f3d 647a 42bf 12d2 953f 0a6b 6b3f
00000160: 97fe 50bf a118 8b3f 8764 81be cb1a 9fbe
00000170: 1cbb aa3f 03d5 93bd cb0a 9b3f 567c ca3e
00000180: bfb3 88be 5ba3 cbbe 3d1b 6dbf 70b6 f43e
00000190: 980e e1be f28a 8bbf ff0a 7f3e 5516 0cbe
000001a0: 25de 80be 4dbd 433f fd42 4e3f aa1e c23e
000001b0: e966 f9bd 86e5 49be 7be2 5fbe f5b9 fc3e
000001c0: 1076 4bbf da76 833f 7d27 18bf 80b7 f1bd
000001d0: dbf8 913f 278d 87be 89dc 5e3f 503e cdbf
000001e0: bc6d 01be b148 71bf 7d66 22bf 6fd6 2bbe
000001f0: b847 b7be 238d a3bf eb03 6fbf 0a80 953e
00000200: 1d84 91bf cb26 5fbf 41d6 3e3f b1cf 9abc
00000210: b584 1cbf 69de 08be c66e 943f 3cb2 29be
00000220: 3e2f 0abf 0c74 8b3f 3645 b7be 6f64 413f
00000230: 19a9 d5bf e915 2d3e fd30 a43f e4d6 52bf
00000240: aa6e 8b3e cbd0 22bf cba6 403f 9a0c 603f
00000250: ff11 74bf ace2 473f 2926 803f 5dc7 39bf
00000260: 8a2c 883e 4fa1 c6bd 8653 0bbf 82fe 233f
00000270: 3b29 71bf 2ca8 c33e 0c89 62bf a8b4 8dbd
00000280: 9314 a4be 944a a63f d4ef 20bd 1413 03bf
00000290: 00ec ddbe be64 b7be e304 fcbe 2e15 bd3f
000002a0: 8433 d3be 06ec 63be 1373 9ebf 75c8 12bf
000002b0: 5cb9 043d fe7f 99bf 8e2f f63d d455 b43f
000002c0: 4f24 3ebf 2013 313e 5a6f 233e 38a1 043f
000002d0: 1d27 b33d 59ca 9d3f 8753 c73e ac46 d03e
000002e0: e805 773f 16d7 93bf c2c7 7ebf 8757 5f3f
000002f0: e018 0abf 0d65 193f a8de 6fbe 2c6d a2bf
0.08146387 1.3796337 0.09995595 -0.87444067 0.5653227 0.10479057 -0.20709234 -0.45891732
-0.6810783 -0.60229915 -0.19455364 0.9570814 0.154814 -0.58161527 1.4977183 0.718306
-0.6540246 0.3494691 -0.35894248 -0.14472122 -1.3368971 0.50962204 -0.93239397 1.2259142
0.8556841 -0.7040019 0.039229985 -0.88868815 0.67090315 -0.40177774 -0.7310402 0.9462048
-0.08977023 -0.6046639 0.44177103 -0.43006718 -0.5009056 1.2556309 -0.81006193 -0.6922209
0.6597601 -1.6737554 -0.5277962 0.38755587 0.4784063 1.012639 -0.56006026 0.5761828
-0.51518357 0.32801723 -0.32256365 0.6538752 -0.91710985 0.98255354 0.5334638 1.2183089
-0.6007805 0.9604502 -0.89585954 0.5195151 0.43589717 0.50118464 0.36723354 -0.61251444
0.831462 -1.6160555 -0.2686207 0.3677977 -1.0110558 -0.18551336 -0.508886 1.3749301
0.94198054 -0.9657712 0.8385276 0.10641124 -0.13076971 -0.1257514 -0.84638315 0.918179
-1.0399022 0.14119498 -0.70061314 0.56415766 0.06993352 -0.75968003 1.1704733 0.91960204
-0.81638473 1.0866891 -0.2527201 -0.3107513 1.3338351 -0.07218363 1.2112669 0.39547986
-0.26699635 -0.39773068 -0.9261969 0.4779544 -0.43956447 -1.0901778 0.24906538 -0.13680394
-0.25169483 0.76460725 0.80570966 0.3791402 -0.12177832 -0.19716462 -0.21863739 0.49360624
-0.79477024 1.0270646 -0.59435254 -0.11802578 1.140407 -0.26474878 0.8705526 -1.6034641
-0.12639517 -0.94251543 -0.63437635 -0.16781019 -0.35796905 -1.2777447 -0.93365353 0.2919925
-1.1368443 -0.8716857 0.74545676 -0.018897863 -0.61139995 -0.13366093 1.1596305 -0.16571897
-0.53978336 1.089479 -0.3579499 0.75543875 -1.669223 0.1690289 1.282745 -0.8235915
0.27232867 -0.6359984 0.75254506 0.8751923 -0.9533996 0.7808025 1.0011646 -0.7256983
0.2659648 -0.09698736 -0.5442432 0.64060223 -0.9420354 0.38214242 -0.88490367 -0.06919223
-0.32046947 1.299151 -0.039291218 -0.51200986 -0.43344116 -0.35819048 -0.49222478 1.4772089
-0.4125024 -0.22258005 -1.2378868 -0.57337123 0.032403335 -1.1992185 0.12020789 1.4088693
-0.7427415 0.17292452 0.15960446 0.518085 0.08747695 1.2327377 0.38930914 0.40678918
0.9649339 -1.1550014 -0.99523556 0.8724293 -0.53944206 0.59919816 -0.2342478 -1.2689567

linear_gelu_stack.2.weight f4 [64, 64]
00000000: 2440 9f3e cb10 00be 0c91 0a3c 511c 12bf
00000010: 29f6 50bf e967 d9be d05c e83b 92f3 8abf
00000020: 67eb f3be 2ce5 c23d ab5b b53d 65ec d2bd
00000030: 1aa0 983d 6a50 5b3e 7d72 72be 2cda e1be
00000040: d599 e6be 37de 28bf fa54 7c3e 4d4a 5cbf
00000050: 83e5 603e 9b35 cb3e d165 12bd 959d 46bf
00000060: 86e8 56bf 94a5 f9be e608 9e3e e345 0abf
00000070: ea55 13bf 24fd 9bbf 7a50 e6bd 6d31 9ebd
00000080: 4e56 5fbe 1760 93be b147 e5be bc5a 87bd
00000090: db7f a2be c2c0 18bf 75f8 5f3d 0e26 f4bc
000000a0: acce 8fbd 9840 7bbe bbe6 273e 1b5f 3cbd
000000b0: 644d 70be 811b dbbe 6298 ac3e d7ae 933e
000000c0: 3bbd 21bf 2b3c 5ebf 99eb 55bf cfbc 1fbf
000000d0: 275b a13e e6fa 0fbc d126 0bbe e681 95bf
000000e0: 58c1 23be ccf9 dbbd 472b 7d3e 2b6c 1c3e
000000f0: 9b81 44bc d5e7 1d3e cd67 24bf 7780 b7bc
00000100: 5fef bbbd dcb9 75be 3de8 613d 76f4 50be
00000110: deed 25bf d84e 893e 01cd 5e3e dbb9 e1bc
00000120: e02b 30bd f5b0 aebe b21e 01be 2478 e2bd
00000130: ff81 1b3e 67d6 b93e 0d84 fdbc 8655 dfbd
00000140: d963 10be 140a 373e 64b8 613d 4a03 983d
00000150: 02fb 93be b86a 0b3f 3f9d 1d3d 3506 053e
00000160: b7bf 90bc 9f7f a5bd 1cfe 643e 770b 123e
00000170: 2d01 113e 1546 bfbe 6c42 c8be 9fbe 063a
00000180: cf7d 22bd 1d37 f53d 5f00 053e 6d52 abbe
00000190: 5fb7 6a3d 7bb3 f73d 92d4 c4be 6bee f93e
000001a0: 2db8 233e ab32 563e d62f 673b 40c6 79be
000001b0: b740 cdbe 956e d13c 5271 a93e 3a01 193e
000001c0: 62ee 583e 4bc4 913d d55d 713c a1ec 593d
000001d0: d71a 093e 41c4 bfbe 64ce fbbd 8ccd 2fbe
000001e0: 6bd8 433d 3239 22be 2f5b b03d f4c6 9ebd
000001f0: 29fc 71be c6ef e0bd 9591 2bbe 37e6 af3e
00000200: 9352 373e 312c eebb c49f a3bd 3e79 76be
00000210: dcdd 04bf 7635 2ebe 39bb f0bd 3283 15bf
00000220: 0531 b8be f727 ab3e 8d34 cbbd e600 3bbe
00000230: f194 173e e2ed 0a3f 0a3b d03d 2e3b d13d
00000240: 0828 91be 79c2 ffbe 0f17 a6bd da9e 13bf
00000250: 2ee7 983d 9607 203f d39b 1c3e 044b f7be
00000260: 6081 0dbf 202c 37be d2d3 043f da39 5fbe
00000270: eadc bdbe cc04 86bf ef40 ecbd aa5a 963d
00000280: e26c cc3d 41f0 e4bd 55a0 eabc 8e34 3e3e
00000290: 92bb 1ebe f558 e6be d1a3 3dbd a7ce a43e
000002a0: 46fe bebe cdd1 5a3d 363f be3d 2ce6 ccbd
000002b0: cb6b 54be 5d0b 76be 0343 a93e 2459 9b3e
000002c0: 90d5 babd 391b d1be 623b 37bf 6100 a9be
000002d0: eb7b dd3e 91e7 853c 81df 1ebe 8b55 3dbf
000002e0: 84b9 5a3d 9f05 c2bc d717 613c 1919 3a3e
000002f0: f468 8c3b 6d36 973e 2129 6fbe 4aff 8c3d
00000300: abe1 c2be 3c4b 0ebf a981 a93e c7a5 26be
00000310: 12ae 5abf c459 473e 4535 b03e 964d 63be
00000320: 9a0c 943e bfa9 343e 6601 31bf d23c 243d
00000330: 709a a5be 241d a33f a604 3bbf 2d44 24bf
00000340: 06f2 89bc 10b7 fe3d edc2 56be 7ea8 503e
00000350: 9608 4dbf 47ad 9c3f d091 c43e aa57 31be
00000360: 08be 0e3e 85e2 f93d bbb0 2f3f 1e60 523d
00000370: 10cf b4bb 60df 93bf 2f2f 72bf 9192 34bf
00000380: ad82 bb3e 7c01 e43e 5239 873d 8c7e 5dbf
00000390: fd46 de3c 9a58 4e3e 2453 0fbf 36a6 a93e
000003a0: d4c2 7b3e 6646 c73e 56f0 063f 167b 06bf
000003b0: 47b4 2fbf e113 443e 8ffd 843f 9828 a5be
000003c0: b66b f63c 4836 f43d 9e01 fe3e 07e7 613d
000003d0: 75da 563f 6ae8 a0bf 792f 743e 2d4d 23bf
000003e0: ead4 af3e a27c 263f fcad 85be 4266 45bf
000003f0: 6b13 38bf 82ce cebe a6d3 7abe faa3 923f
0.31103623 -0.12506406 0.008457433 -0.5707446 -0.8162561 -0.4246209 0.0070911422 -1.0855582
-0.47640535 0.09516367 0.08855375 -0.10298995 0.07452412 0.21417394 -0.23676486 -0.44111764
-0.4503924 -0.6596407 0.24641791 -0.86050874 0.21962552 0.39689335 -0.03574163 -0.775842
-0.8394855 -0.4875914 0.30866164 -0.5401289 -0.5755297 -1.2186627 -0.112458184 -0.07724271
-0.21810266 -0.28784248 -0.4478126 -0.06609103 -0.3173817 -0.59669125 0.054680306 -0.029803302
-0.070218414 -0.2453636 0.1639661 -0.045989137 -0.23467022 -0.4279442 0.3371001 0.2884433
-0.6317937 -0.8681056 -0.8356262 -0.62397474 0.31514856 -0.008787846 -0.13589026 -1.1680267
-0.15991724 -0.10741004 0.2472354 0.15275638 -0.011993791 0.15420468 -0.6422089 -0.022400124
-0.09176516 -0.23996681 0.05515312 -0.20405754 -0.6481608 0.26817966 0.2175789 -0.027554443
-0.043010592 -0.34119383 -0.12609366 -0.11058071 0.15186308 0.36296389 -0.030946756 -0.10904984
-0.14100589 0.17874938 0.05510749 0.07422502 -0.2890244 0.54459715 0.03848004 0.12990649
-0.017669542 -0.080809824 0.2236256 0.14262186 0.14160605 -0.37358156 -0.39113176 0.0005140099
-0.03967076 0.11973403 0.12988423 -0.33461323 0.057303783 0.1209478 -0.38443428 0.4881471
0.15988226 0.20917766 0.0035276315 -0.24392033 -0.40088436 0.025565425 0.3309427 0.14941874
0.21184686 0.07117518 0.014731844 0.053204183 0.13389145 -0.37454417 -0.12295225 -0.17168254
0.047813814 -0.15842131 0.08611142 -0.07752791 -0.23631348 -0.10983233 -0.16754754 0.34355327
0.17902593 -0.0072684516 -0.07989457 -0.24069688 -0.5190103 -0.17012581 -0.1175446 -0.58403313
-0.359749 0.33428928 -0.09922133 -0.18262061 0.1480291 0.5426923 0.10167511 0.10216366
-0.28350854 -0.49953058 -0.08109867 -0.57664263 0.07465969 0.62511575 0.15293817 -0.4829942
-0.55275536 -0.17887926 0.5188571 -0.21799412 -0.37082607 -1.0470214 -0.115358226 0.073415115
0.09981705 -0.11178637 -0.028640905 0.18574736 -0.1550124 -0.44989744 -0.046298806 0.32188913
-0.3730337 0.053422738 0.092894 -0.10004839 -0.20744245 -0.24027772 0.33058938 0.30341446
-0.09122765 -0.40841082 -0.71574986 -0.33008102 0.43258604 0.016345771 -0.15514947 -0.73958653
0.053399578 -0.023684321 0.013738594 0.18173636 0.0042849723 0.2953371 -0.23355533 0.0688463
-0.38062796 -0.5558355 0.33106735 -0.16274177 -0.8542186 0.19467837 0.3441564 -0.22197565
0.28915864 0.17642878 -0.6914276 0.040097065 -0.3234439 1.2743268 -0.7305397 -0.6416653
-0.016839039 0.1243726 -0.20972796 0.20376775 -0.80091226 1.224038 0.38392496 -0.17318597
0.13939679 0.12201408 0.68629044 0.051361196 -0.005517848 -1.1552544 -0.94603246 -0.7053614
0.36623135 0.44532382 0.0660273 -0.8652122 0.02713346 0.20150986 -0.5598624 0.3313462
0.2458604 0.38920897 0.52710474 -0.52531564 -0.68634456 0.19148208 1.038988 -0.32257533
0.030080657 0.11924416 0.4961061 0.055151965 0.8392709 -1.2570927 0.23846234 -0.63789636
0.34342128 0.65033925 -0.26109302 -0.7710916 -0.7190463 -0.40391928 -0.244948 1.1456292

linear_gelu_stack.4.weight f4 [1, 64]
00000000: e27b 543e 4af2 843d bd36 02bd 4fda bf3e
00000010: d316 26bf c960 c4be 2031 12bf 4828 99bd
00000020: 9cef b3be c76a 09bf 555e f0be 7f9a 06bf
00000030: 72cd c43e 1711 443e 8e4b ba3e 5a1e 423e
00000040: dac6 f8be 26a9 f9be b175 43c0 b505 febe
00000050: 652c 5c3e 4899 6ebf 4ef5 4a3e bcc6 5a3e
00000060: f952 933e 6926 2ebf 2db1 053f 70cb 32bf
00000070: 474c 19bd f60b 5e3d 79c6 9f3e fbef 223d
00000080: 8adc 043f b0fc 8e3d 9ec3 333c 5e50 00bb
00000090: 18d0 54bf 5c66 1d3e e49f 01be 5e11 bebc
000000a0: d3eb 98bf d11d b03e 857b b33e 99b2 90bf
000000b0: 5340 94bf 4f18 c4bb 2005 d53e 1f0e 283c
000000c0: 6d48 f13d 8dba 1c3e 4c10 d3bf b187 27bd
000000d0: 1d74 f43d d1e5 193c ac1d 9b3e 29f9 203e
000000e0: a955 1cbb d80f 5fbd c21d 273e 1fd0 9dbf
000000f0: 4b61 383e 512f 3abf adea 65bf 8406 8ebc
0.20750383 0.064915255 -0.031790484 0.37471244 -0.64878577 -0.3835509 -0.5710621 -0.07478386
-0.35143745 -0.53678554 -0.4694697 -0.5257949 0.38437992 0.19147144 0.3638577 0.1895689
-0.48589212 -0.48761863 -3.0540583 -0.4961373 0.2150131 -0.9320264 0.19820139 0.21364874
0.2877424 -0.6802736 0.52223474 -0.6984167 -0.03742626 0.054210626 0.3120611 0.039779644
0.51899016 0.0698179 0.010971932 -0.0019579153 -0.83130026 0.15371078 -0.1265865 -0.02320164
-1.1946968 0.34397748 0.35055175 -1.1304504 -1.158213 -0.005984343 0.41605473 0.010257273
0.11781392 0.15305538 -1.6489348 -0.04090089 0.11936209 0.009393171 0.30296075 0.15720047
-0.0023854768 -0.05445847 0.16319945 -1.2329139 0.18005864 -0.7272845 -0.8981121 -0.017337091

exp_avg f4 [64, 3]
00000000: 6c20 8e3a b728 223b 1203 c03a 3ac6 9cba
00000010: 2324 aaba cad8 41ba 4ef5 6e3a 7814 113b
00000020: ee25 f539 0999 a3ba d5e0 97ba 863c 14ba
00000030: 9c6c 49bb 23ab 90bb 1920 bdba 58e4 7539
00000040: 078d 553a 5b4f 59b7 696d 443a c7f4 e53a
00000050: c5f1 db39 daf0 7abb ae88 adbb a287 d2ba
00000060: ecf0 f239 e083 953a 86b8 0ab8 7ac5 eab9
00000070: 140c adba 4bbc 61ba 358c 2e3a 89af d63a
00000080: 212b 9f39 dd29 02bb 4a3d 35bb 0407 c8ba
00000090: ca13 a438 23cf 6138 5a80 a939 8688 163c
000000a0: 6313 353c 867e 993b 43d6 9a39 b937 8e3a
000000b0: 9252 ae39 052a 9c3a f5ed 193b c47c 643a
000000c0: 8c0a c4ba 1fa0 05bb f4e8 a7ba cd61 c8ba
000000d0: 75df f5ba 3b0e 19ba 825f 443a 1630 cd3a
000000e0: a9ee 913a a571 84b9 a889 29b8 5de7 00ba
000000f0: cb2d a639 9699 9d3a 999e 9d38 46be e83b
00000100: 6d03 093c aa32 923b 6090 8b3a 327b b73a
00000110: 24b4 6f39 f550 1cbb 7999 56bb 2089 89ba
00000120: 485c e4b9 dc2d b0b8 7355 7137 7a57 4938
00000130: e9f6 833a 1550 c8b8 60df e63a da84 a03a
00000140: 2bb5 e83a 5879 5eba 25fe 1bba 7db7 21b9
00000150: 75e6 73bb 9a31 adbb 87ff f5ba 23c0 0abb
00000160: 6d40 55bb 648e c0ba d802 2dbb 0d21 5dbb
00000170: f9f0 5eba 7951 ab3a fae1 4b3b 22bd d53a
00000180: 3934 063a a081 d33a 6b6c ca39 c84a ca3a
00000190: 9e8c 333b 14f0 eb39 aceb 83b8 6bf7 1d3a
000001a0: 9091 d0b9 d06b 99b8 2b1f 613a a8fd 61b9
000001b0: 62e8 61ba 8884 deb9 e298 1bba 9320 9138
000001c0: 03db ed39 7c75 8e39 ce89 02bb 7d8f 0ebb
000001d0: 417a dcb8 5685 f9ba 5e52 94bb 1ad1 11bb
000001e0: fd66 67b9 21b8 8339 19ce 84b9 4068 263a
000001f0: c2a1 c93a ac05 a239 25fa 843b 7157 9d3b
00000200: baca de3a 6354 2838 1ebf 2c3a 4b23 8738
00000210: 29c9 8dbb 6b2f b8bb 4d76 a4ba c721 f1ba
00000220: 17a6 28bb efc3 85ba fcb8 4a3b 824c 3e3b
00000230: e05c d33a 14d2 143a 8ccf 893a aefa 693a
00000240: 059a e0b9 ca37 53b9 9e14 68b9 f824 c8b9
00000250: 5513 37b9 bb5e 6db9 f92b a939 451b 593a
00000260: 5baa dab9 1c9e dbba 0217 fcba 216f 6bba
00000270: 160c c13b d2d1 013c 7192 4d3b a576 ddba
00000280: 59f9 f9ba bdbf b5b9 d65d 3f3a eb3e 013b
00000290: b7de 9938 96b2 11bc e694 5cbc a8d0 97bb
000002a0: d80d a13a e285 1a3b a29f 9f39 7c6d 6f3b
000002b0: 5189 a93b 0c57 ac3a b06a f03a fcf0 503b
000002c0: 416c 253b 8e60 f03a 8ec7 663b f010 ae3a
000002d0: e163 db39 2db7 c73a e262 0d3a ed08 9839
000002e0: 45f6 bf39 f11c 803a 1844 3cbb 7446 88bb
000002f0: b0d7 38bb 49fc d43b 30cc 153c 03fb 2d3b
0.0010843403 0.0024743506 0.0014649353 -0.0011960932 -0.001298074 -0.000739467 0.0009115533 0.0022137444
0.000467583 -0.0012481521 -0.0011587391 -0.00056547706 -0.0030734902 -0.0044149323 -0.0014429122 0.00023450085
0.000814632 -1.2952684e-05 0.000749311 0.0017544263 0.00041951067 -0.0038290531 -0.0052958345 -0.001606215
0.00046337338 0.00114071 -3.3073615e-05 -0.0004477909 -0.0013202452 -0.00086111267 0.0006658466 0.0016379218
0.00030358977 -0.0019861378 -0.002765494 -0.001526088 7.8238154e-05 5.383709e-05 0.0003232982 0.009187823
0.011051985 0.004684272 0.00029532806 0.0010850347 0.00033249386 0.0011914378 0.002348778 0.00087161013
-0.0014956756 -0.002038963 -0.0012810514 -0.0015287936 -0.0018758612 -0.00058386073 0.00074910384 0.001565459
0.0011133748 -0.00025261674 -4.0420942e-05 -0.00049172883 0.00031696106 0.0012023922 7.5158845e-05 0.0071027605
0.008362633 0.004461606 0.0010647886 0.0013998507 0.00022859924 -0.0023851965 -0.0032745285 -0.0010493137
-0.00043556304 -8.400876e-05 1.4384615e-05 4.8003603e-05 0.0010068092 -9.5516596e-05 0.0017614178 0.0012246624
0.0017754188 -0.00084867096 -0.0005950651 -0.00015422511 -0.003721622 -0.005285454 -0.001876817 -0.0021171651
-0.0032539621 -0.0014690873 -0.00263994 -0.0033741624 -0.00085045357 0.0013070545 0.0031110034 0.0016306976
0.0005119476 0.0016136654 0.0003860922 0.0015433664 0.0027397047 0.00045001565 -6.290464e-05 0.0006025943
-0.00039781304 -7.31569e-05 0.0008587713 -0.00021552166 -0.00086176966 -0.00042441883 -0.0005935562 6.920206e-05
0.0004536734 0.00027171883 -0.0019918564 -0.0021753006 -0.00010513189 -0.001903693 -0.0045264205 -0.0022249878
-0.00022068243 0.00025123454 -0.00025330557 0.0006347932 0.0015383291 0.00030903274 0.00405814 0.0048016836
0.0016997673 4.0132913e-05 0.0006589758 6.4438755e-05 -0.0043269587 -0.005620887 -0.0012547463 -0.0018396907
-0.0025733763 -0.0010205487 0.0030933013 0.0029037301 0.0016125701 0.0005677056 0.0010514124 0.0008925599
-0.00042839363 -0.00020143311 -0.00022132925 -0.00038174517 -0.00017459442 -0.00022637371 0.00032266954 0.00082819565
-0.00041707125 -0.0016755494 -0.0019232931 -0.0008981098 0.0058913333 0.00792356 0.0031367803 -0.0016896321
-0.0019071504 -0.00034665866 0.00073000544 0.001972134 7.3370924e-05 -0.008892676 -0.0134632345 -0.004633028
0.0012287451 0.0023578336 0.0003044578 0.0036533764 0.00517384 0.0013148501 0.0018342342 0.003188192
0.0025241526 0.0018339322 0.0035214159 0.0013280194 0.0004184535 0.0015237086 0.0005393458 0.0002899835
0.00036613844 0.000977425 -0.002872711 -0.0041587893 -0.0028204732 0.0064998013 0.00914292 0.002654732

exp_avg_sq f4 [64, 3]
00000000: 9589 aa39 a65c bb3a 0dcb b939 0729 b238
00000010: 2537 5f39 7fce 0738 9c96 cd37 4826 0739
00000020: da21 9d37 2cdc 3939 3b03 063a 3f45 ca38
00000030: c6c3 053b 52de ef3b ea73 e73a a1b9 d238
00000040: 94f2 cb39 bf58 ec38 cb87 3738 fc62 4939
00000050: 7188 1b38 49aa c43a 6fd9 9b3b c2d9 8d3a
00000060: 6d08 a538 2f35 9f39 942a a938 3d63 1e3a
00000070: 42a3 143b 6442 153a c839 e338 cb1c e239
00000080: 6583 d238 5a52 1539 9451 fd39 8f86 d938
00000090: faf6 c639 afbe ce3a 7fb5 c639 c4c1 b93b
000000a0: 0b56 7b3c 47dd 433b 250e 8c37 8b56 8a38
000000b0: 834e 8c37 cd37 9139 3f40 823a d5c7 8439
000000c0: 79a5 9638 e7f8 8639 08ba 7738 e6c8 253a
000000d0: 7286 123b eac6 133a f6f5 7939 1f26 863a
000000e0: 8b42 8439 21e1 113a dad1 103b b257 1d3a
000000f0: 12ab 0c38 e364 2139 0868 0038 5385 ad3b
00000100: 7479 873c f178 733b 5c90 fe38 75f9 a439
00000110: 2141 8e38 2468 143a fa5e d03a 7a80 b439
00000120: 607e a53a df64 a23b a815 a73a 7b21 aa37
00000130: d068 d038 08d1 b837 4443 7d3b bdba 703c
00000140: e885 6f3b 26fa 0d39 fa7d ce39 ac27 b338
00000150: 76fc 7b3a ccbc 353b 2e56 203a f12e 6b3b
00000160: 81d7 693c 7bbf 743b 7202 433a 0e31 023b
00000170: 2263 bb39 af0f af39 b637 c33a fefc be39
00000180: f9e2 eb37 4e67 1d39 bbaf e637 7283 e838
00000190: bda8 8239 fd8a 3b38 83bf 0d38 b1dd 1739
000001a0: 9ff4 3538 ca9c 4538 8ef4 7039 9a06 3738
000001b0: b0f5 5138 c4dd 2939 3c7e 1038 3a8a 2339
000001c0: 4570 1c3a 8404 2039 3fc3 473a fba9 f43a
000001d0: a53a a339 50df f13a 5288 e83b 884e eb3a
000001e0: eecb 1b38 6738 1b39 4e25 3038 ed90 4a38
000001f0: 771e 4539 ed7d 3f38 306e 7e3a a958 363b
00000200: f683 013a 315c 9238 c7b3 9639 0963 8a38
00000210: df1d db3a 0755 6f3b c6c5 053a fc3c ac39
00000220: cd1e 813a 0ed9 7939 0962 593b c2b0 3c3c
00000230: 3fdb 363b b48d 9b39 f51f a83a 5aac a239
00000240: 4c79 2f39 5559 183a 819a 2839 72be 263a
00000250: 3470 233b 2a60 2b3a b475 5c3a 89c4 613b
00000260: 9d38 663a cecf 5b39 01f5 1c3a 6bde 0e39
00000270: 0896 da3a 0e05 953b 52fe 623a b359 d239
00000280: 9a3f 9a3a 32d1 7539 45f8 2738 d4dd ff38
00000290: 1b70 0d38 bc5b 933b 811e 3c3c 5391 0e3b
000002a0: f5ed c138 76de 7639 36a7 8438 bb9f 133a
000002b0: f0f9 ac3a 08a1 6139 055b 373a 8469 453b
000002c0: d5bf 443a 4bd2 9838 4023 5c39 0888 3338
000002d0: 507e c538 e194 da39 6226 cd38 e109 193a
000002e0: bdea 1f3b ffbe 1d3a 713b 943a 7e71 913b
000002f0: 2afd 973a b072 be3a 74a3 4e3b 6da7 ec39
0.00032527433 0.0014294579 0.00035437234 8.495343e-05 0.0002128748 3.2378823e-05 2.4508037e-05 0.00012888864
1.8731622e-05 0.00017724995 0.0005112176 9.645009e-05 0.002041088 0.007320204 0.0017658446 0.000100481564
0.00038899912 0.00011269887 4.3757067e-05 0.00019205728 3.708195e-05 0.0015004362 0.0047561447 0.0010822343
7.8693825e-05 0.00030366468 8.066479e-05 0.00060420093 0.0022680317 0.0005693792 0.00010834966 0.00043127532
0.000100380545 0.00014240426 0.000483167 0.0001037243 0.00037949515 0.0015773381 0.00037900728 0.0056688506
0.015340338 0.002988653 1.6695887e-05 6.596473e-05 1.672586e-05 0.0002769813 0.000993736 0.00025325888
7.183379e-05 0.00025743918 5.9062644e-05 0.00063241867 0.0022357968 0.00056372455 0.00023838118 0.001023475
0.0002522658 0.0005564858 0.0022097738 0.00060021423 3.3537923e-05 0.0001539174 3.0614465e-05 0.0052954345
0.016537406 0.0037150944 0.00012138553 0.00031466378 6.783219e-05 0.000566127 0.0015897446 0.00034427998
0.0012626164 0.0049558724 0.0012747543 2.028117e-05 9.937736e-05 2.2031847e-05 0.003864483 0.014692959
0.003654832 0.00013539995 0.00039385242 8.5427746e-05 0.000961251 0.002773094 0.00061163574 0.0035886134
0.014272572 0.0037345577 0.0007439024 0.0019865665 0.0003574128 0.00033390286 0.0014893922 0.00036428118
2.8119875e-05 0.00015011171 2.7499967e-05 0.00011087106 0.00024921252 4.4713717e-05 3.379538e-05 0.00014483069
4.3381584e-05 4.711448e-05 0.00022979287 4.3636748e-05 5.0058297e-05 0.0001619971 3.444984e-05 0.00015596385
0.0005967657 0.00015260471 0.00076203415 0.0018666381 0.00031133476 0.0018453393 0.007096329 0.0017952481
3.7144804e-05 0.00014802963 4.1996413e-05 4.8295526e-05 0.00018798733 4.5655226e-05 0.000970575 0.0027823842
0.0004940623 6.9789945e-05 0.00028744174 6.5987995e-05 0.0016717276 0.0036519186 0.0005103018 0.00032851833
0.0009851098 0.0002382735 0.0033170006 0.011516752 0.0027901677 0.0002966948 0.0012826907 0.0003102746
0.00016734487 0.00058116514 0.00016079286 0.0006360776 0.0024938704 0.0006537462 0.0008409873 0.003444942
0.000878224 0.00020962881 0.0005987436 0.00013625032 0.0016676793 0.0045477217 0.00086591125 0.00040121152
0.0011768222 0.00023442952 4.004712e-05 0.00012200666 3.3721426e-05 0.0044970196 0.011481882 0.00217541
9.24728e-05 0.00023543261 6.325396e-05 0.00056314067 0.0013197046 0.00021517661 0.0006994459 0.0030122707
0.0007505392 7.287095e-05 0.00020993967 4.2803615e-05 9.4172196e-05 0.00041691124 9.782311e-05 0.0005837959
0.002440139 0.00060175353 0.0011309219 0.004438578 0.0011595835 0.0014530029 0.003153053 0.0004513817

exp_avg f4 [64, 64]
00000000: 402a 113a 3f3b 4338 9d19 86b9 15db 3138
00000010: 6c1b 4239 fdea 0838 58fd aeb9 c470 9238
00000020: 34b0 29b7 f49d 7ab8 ea31 1d39 3fad a1b8
00000030: 3a20 9238 4022 acb9 7ce9 2239 d41e 1e39
00000040: 4096 8eb8 f79f 6f38 f678 b339 220b 1f38
00000050: 6578 c039 edd1 8eb9 913a 33b9 29ef ec38
00000060: 7e90 8f38 a463 18b8 6e97 20b9 d288 48b8
00000070: 6f38 fa37 8498 2239 1534 2c39 bddc 0f3a
00000080: 77c8 99b9 b659 58b9 6c8c 20b8 325a 183a
00000090: 4cb0 eab8 fa56 9b38 d490 eb38 0cb2 51b9
000000a0: 476b a1b9 f5d8 a8b9 6da6 b3b9 8c95 9e38
000000b0: 5485 e238 bf66 3038 6bb2 84b9 b623 5439
000000c0: dab7 0138 cd98 5538 bd33 4138 826f 0fb8
000000d0: 7dcb 91b9 7852 4639 ba47 50b9 7123 dc38
000000e0: d276 b0b9 3572 aab9 6f29 8a39 0c3d 6639
000000f0: 2b84 1c3a 562f 4f38 ae35 73b8 c5ea 3eb9
00000100: af14 ceb8 f56c 85b7 e38c c8b9 3da7 06b9
00000110: 8d9a 6bb7 23c2 00b7 37fd bdb9 6a4a a5b8
00000120: cb69 9cb7 f38f e3b7 b916 29b8 dfe3 0db8
00000130: 6e4c c1b8 aaa4 03b9 194c 39b6 60ec 8437
00000140: 0e3a 25b8 a53f 77b8 7a5a dbb8 b0f1 8bb7
00000150: ba82 9eb8 e838 a2b7 f75b 00b8 b517 a5b8
00000160: b655 8fb7 58e5 bdb7 14cc fbb6 4273 50b9
00000170: 40c4 23b9 19e5 6537 4d33 e8b7 e9fd c0b8
00000180: 9238 d2b9 f3f0 36b9 7596 3eb6 9e9e 99b8
00000190: fbd2 13b9 44a1 49b8 696e 80b8 355b f437
000001a0: d36d 11ba 261d cbb9 2fbe aeb9 5a76 d7b6
000001b0: 4796 92b8 2544 0cb9 5c55 3c37 72ef 00b9
000001c0: 04b2 a6b8 77f0 0fb8 b896 aa37 f7e5 45b9
000001d0: ef31 84b9 1ec4 d2b6 0e3f a7b9 7d68 ecb8
000001e0: 0167 d3b9 ec3e b1b9 5b5a ffb8 d317 b3b7
000001f0: a0b2 bdb8 f9a1 e5b8 ff81 60b7 8bdc 43b8
00000200: 7242 62b8 a1c5 c235 8dbf 1cb9 3414 f2b7
00000210: e3fa 38b7 65e0 51b7 cb01 21b9 5606 bab7
00000220: 0d19 b1b7 1132 2936 8239 b936 2862 9fb6
00000230: 8f46 8c37 54c9 30b8 e657 6db4 d123 0c35
00000240: a019 07b7 7c76 aab7 56b4 dbb7 da8f 84b7
00000250: bb06 01b8 6c32 3236 2158 34b7 50f8 aab7
00000260: c82e 54b7 1445 3bb7 1013 8737 5d30 70b8
00000270: 8a80 1bb8 f1b2 61b6 d35a 4bb7 7114 64b8
00000280: 0907 2cb9 5b05 bbb8 3162 dfb6 b57d 7eb8
00000290: 2f31 44b8 420d 8db7 00b9 80b7 5f98 0138
000002a0: 2605 7cb9 5040 34b9 94de e9b8 5ec6 0137
000002b0: c670 8eb7 4ed2 05b8 e7ce 2c37 354d ccb6
000002c0: 0213 d2b7 daa5 91b7 8507 c9b6 c602 54b8
000002d0: 228e 98b8 dcd4 15b7 81c5 f8b8 3df3 d7b7
000002e0: e83a 32b9 d3c4 07b9 bfad 6fb7 afa2 bbb6
000002f0: c978 7eb8 efa5 8837 02c6 4837 a884 3bb8
00000300: 5930 44ba 8013 23b9 3370 10bb 5a87 37ba
00000310: 3554 6db8 1581 19b8 ead7 0bbb e372 e6b9
00000320: a382 dfb8 b6cc 95b9 2b31 c4b9 780e 95b9
00000330: 5de0 4aba f177 7dba 9378 bab7 74a7 fc38
00000340: 8e94 96b9 ec12 adb9 8de4 57ba 56f5 c6b8
00000350: 103b efb9 1999 cbb9 4c83 a1b9 6bb8 deb9
00000360: 9fe2 c5b8 75f5 07b9 c77a 92b9 49ba 93ba
00000370: a978 65ba 58ab c438 a1b4 03b9 b12e 2eba
00000380: bef9 17bb f88d 86ba 4f14 b8b7 fbc7 01ba
00000390: 9231 53ba 8491 8ab9 8ea9 a3b9 eefa e6b8
000003a0: 5e4e 52bb 86ec 13bb 814e 04bb 23d7 17b9
000003b0: eab1 bdb9 06a6 42ba e453 57b9 e95b 7aba
000003c0: 65c1 e7b9 f1f8 4ab9 b434 0039 b147 8bba
000003d0: 275b cbba 9027 08b6 470b f0ba 9872 21ba
000003e0: a744 1abb e3b3 03bb 0512 7cba 2845 c4b8
000003f0: 5d44 2cba 014b 5fba d4eb 86b9 5490 aab9
0.0005537607 4.65468e-05 -0.00025577555 4.2404125e-05 0.00018511497 3.2643777e-05 -0.00033376622 6.982827e-05
-1.011421e-05 -5.975175e-05 0.00014991281 -7.709348e-05 6.967825e-05 -0.00032831915 0.00015536504 0.00015079539
-6.799074e-05 5.713102e-05 0.00034231663 3.7918922e-05 0.00036710795 -0.00027240757 -0.00017092588 0.00011297904
6.845685e-05 -3.633242e-05 -0.00015315201 -4.781114e-05 2.9828601e-05 0.0001550634 0.000164226 0.00054879097
-0.00029331792 -0.00020632785 -3.827775e-05 0.000581178 -0.00011190827 7.4071766e-05 0.000112326496 -0.00019998121
-0.0003078824 -0.00032205103 -0.00034265537 7.5618824e-05 0.00010801354 4.205736e-05 -0.00025309934 0.00020231199
3.092722e-05 5.0925464e-05 4.606297e-05 -3.4197707e-05 -0.00027808166 0.00018913473 -0.00019863146 0.00010497019
-0.00033657864 -0.00032510018 0.00026352282 0.00021957251 0.00059706223 4.939673e-05 -5.7985708e-05 -0.0001820727
-9.826698e-05 -1.5905573e-05 -0.0003825194 -0.00012841537 -1.4043076e-05 -7.6745955e-06 -0.0003623755 -7.881674e-05
-1.8645913e-05 -2.712754e-05 -4.0313902e-05 -3.382924e-05 -9.217193e-05 -0.00012554476 -2.7611443e-06 1.5845697e-05
-3.9393133e-05 -5.8948663e-05 -0.00010459586 -1.6682636e-05 -7.558377e-05 -1.9338404e-05 -3.0603227e-05 -7.872229e-05
-1.708684e-05 -2.2637352e-05 -7.5041407e-06 -0.00019879363 -0.00015618 1.3702805e-05 -2.7680444e-05 -9.202568e-05
-0.0004009647 -0.00017446633 -2.8399784e-06 -7.325153e-05 -0.00014097609 -4.8072325e-05 -6.124081e-05 2.9129538e-05
-0.0005547676 -0.00038740895 -0.00033329564 -6.4212772e-06 -6.989814e-05 -0.00013376826 1.12255475e-05 -0.00012296232
-7.948655e-05 -3.4317807e-05 2.0335763e-05 -0.00018873053 -0.00025214205 -6.2813187e-06 -0.00031899702 -0.000112728194
-0.000403218 -0.0003380695 -0.000121761776 -2.1349557e-05 -9.045494e-05 -0.00010949741 -1.33817075e-05 -4.669702e-05
-5.394448e-05 1.4511644e-06 -0.00014948678 -2.8858056e-05 -1.1025669e-05 -1.2509617e-05 -0.00015354824 -2.2175878e-05
-2.111171e-05 2.5212105e-06 5.5201244e-06 -4.749996e-06 1.6722157e-05 -4.214917e-05 -2.2104322e-07 5.2206184e-07
-8.052593e-06 -2.0320753e-05 -2.619081e-05 -1.5802612e-05 -3.0762265e-05 2.6553416e-06 -1.0749355e-05 -2.0381209e-05
-1.2647077e-05 -1.1162152e-05 1.610213e-05 -5.72655e-05 -3.707459e-05 -3.363177e-06 -1.212089e-05 -5.4378474e-05
-0.00016405819 -8.9178524e-05 -6.657349e-06 -6.0675393e-05 -4.6775847e-05 -1.6814683e-05 -1.5344936e-05 3.0897903e-05
-0.0002403451 -0.00017190096 -0.00011151764 7.735185e-06 -1.6980233e-05 -3.1905533e-05 1.0300172e-05 -6.088662e-06
-2.5042802e-05 -1.7362578e-05 -5.991142e-06 -5.054732e-05 -7.274399e-05 -8.930652e-06 -0.000118623495 -2.5743264e-05
-0.00016997347 -0.00012947926 -1.42859635e-05 -5.591973e-06 -6.067081e-05 1.6289732e-05 1.1967031e-05 -4.470782e-05
-0.0007484011 -0.00015552156 -0.0022039532 -0.0007001065 -5.6583627e-05 -3.659826e-05 -0.0021338412 -0.00043954616
-0.000106578016 -0.00028572016 -0.00037420666 -0.00028430275 -0.0007739121 -0.0009669057 -2.2229075e-05 0.00012047487
-0.0002872091 -0.0003301123 -0.0008235656 -9.487073e-05 -0.00045629637 -0.00038833244 -0.00030806137 -0.00042480542
-9.4359035e-05 -0.00012966043 -0.00027938766 -0.0011270727 -0.00087536365 9.3779236e-05 -0.00012560423 -0.0006644531
-0.002318963 -0.0010265699 -2.1943966e-05 -0.0004950759 -0.0008056398 -0.0002642983 -0.0003121611 -0.00011013994
-0.0032090168 -0.00225714 -0.0020188394 -0.00014480627 -0.00036181445 -0.0007425252 -0.0002053525 -0.0009550439
-0.00044203844 -0.00019356959 0.00012226665 -0.0010626224 -0.0015514836 -2.0288608e-06 -0.0018313908 -0.00061587384
-0.0023539455 -0.0020096235 -0.0009615722 -9.35889e-05 -0.0006571466 -0.00085179514 -0.00025734177 -0.0003253246

exp_avg_sq f4 [64, 64]
00000000: a48d 4538 a7fe 6135 9fed 2f37 43ce 0f34
00000010: d72d aa35 e3af 6734 aacf 4437 37b1 8534
00000020: 7bb7 4b35 8b84 2e35 546c c436 9ade 9434
00000030: a4a4 0c37 2d4c 6636 e5be 1036 21ca 5835
00000040: de10 3c34 ebea 8a34 3bbf e437 700a ba34
00000050: e940 6d37 51a2 2136 555e 8435 a589 c334
00000060: 60c2 5334 5f98 7c34 44cd ed35 b3c4 e235
00000070: 45c1 e734 ef0f 4d35 504a 8b35 e9f0 2938
00000080: 3fac 5137 81e1 c836 b12a 6d34 6c0b 2238
00000090: d73b db35 19e3 3f34 602f 0935 ea1a 2136
000000a0: 6acd d337 bfb8 6d37 54aa db36 81f5 0e36
000000b0: 0261 f334 dc14 8434 18fc 1336 e042 9437
000000c0: 278d 9b34 5141 9b34 4464 1c34 cfd1 9435
000000d0: 5f0d 5e36 14c9 cf35 7ef2 ef36 7413 ba34
000000e0: 457f 6237 7f70 1137 e9a1 c937 d503 8036
000000f0: 5b68 4638 7cff e936 408e c335 9ecb 5736
00000100: c6fe 7f35 487d a533 728d ae36 293f 2b35
00000110: fed3 6d33 844f 2a33 45b5 ad36 34a6 4334
00000120: 2a78 0334 4dec fb33 117d 9e34 c573 b533
00000130: 4bf1 1835 391c 6535 1563 b333 84ca 5a33
00000140: fe1c b633 b52d fd33 c608 4a35 3884 9c33
00000150: 3e77 c534 ad92 6b34 6030 f533 c60f 7f34
00000160: 2e17 5a33 0164 0d33 bb53 3334 a356 9b35
00000170: 83bb 3d35 3873 2e33 d942 9b33 c5ff 5135
00000180: 49df c836 bc87 d335 bb2c bc32 2f28 3335
00000190: 40ee 3a35 343b ae33 a8e9 5034 dcc6 8434
000001a0: a279 4937 efcd cc36 3750 8436 8c91 0b34
000001b0: 7a3d 8134 298b 1a35 60c2 4934 50de 3e35
000001c0: 8637 5034 52b4 a933 4154 4333 b993 9135
000001d0: 2580 1b36 306d 6a33 a8c7 6836 7d7d 0035
000001e0: 41f7 d336 84c6 8d36 bb65 5735 8d15 1734
000001f0: 1658 6a35 6347 1835 709e 1f34 500c 0e35
00000200: dffb 6c35 713c 8932 6424 2e35 058d 4f32
00000210: 62dc ef32 5059 7731 45bc 5435 7af2 d131
00000220: 9e9e 8e32 daa4 9a32 02e7 ee33 8728 6332
00000230: 55f5 2534 b645 7634 c7ff 3b33 b672 b932
00000240: 0fe8 3532 c899 b931 4b86 0c35 f5d3 c331
00000250: 9101 9034 95be db33 4be7 4a33 7b26 1d32
00000260: 8184 4c31 88ce f631 7a3c 5133 04cf a633
00000270: 5bb5 ba32 972d a832 adff bf32 c354 4c35
00000280: 7a86 5735 38ee 9c34 180c c031 0f1d 4235
00000290: b62a ab33 521d 7b31 0142 4732 2f33 7733
000002a0: dc92 c935 46ce 7535 0d98 0a35 7ce7 3033
000002b0: 7ec6 3932 f3e3 7632 c5d6 ae33 f0d0 b634
000002c0: 8a87 2132 d3ef a731 9004 2431 1bf6 7533
000002d0: 991d 8e34 cef8 1033 e594 d934 d121 4132
000002e0: 26fe 7535 c4f0 2335 2b0b f934 98d4 a433
000002f0: 4460 6d35 0830 0a34 3ac0 0b33 76a1 0a34
00000300: 0a04 e837 643f 2136 d489 2b39 5434 ab37
00000310: 8491 3836 6259 9735 beab 2c39 a1a3 ca36
00000320: 258e 5936 d971 9e36 cd56 0d37 3469 6b36
00000330: aef6 8b37 57b8 1238 2c14 2836 0976 1a36
00000340: f823 5936 71e3 8036 2d6b b637 2a3c 0d36
00000350: 0262 4037 ebd9 6037 8d78 bb36 133f 0637
00000360: e8a8 ea35 785f 8635 892d 0f37 0a7c 1938
00000370: c369 bd37 b82c 1436 94e7 4836 e67e c337
00000380: 040b 4539 919c 4938 fafb 2a35 5a55 ab37
00000390: 4c3a bb37 ab7d 3e36 d892 d936 5d94 4d37
000003a0: c25e c139 c8dd 4739 b66a 0939 6651 8336
000003b0: 241b 0537 1cf7 9a37 16eb 4137 675d aa37
000003c0: b769 cf36 2495 2536 ccaa ba35 c2d3 1038
000003d0: 8826 a438 95c1 2f36 aa1c e538 c4ac 8237
000003e0: a242 5139 01bf 0f39 6ff1 bf37 2257 9c36
000003f0: 372e d937 6330 8937 676f ca36 3c03 8837
4.7100373e-05 8.41896e-07 1.0486138e-05 1.339295e-07 1.2679328e-06 2.1577539e-07 1.1730861e-05 2.490212e-07
7.589039e-07 6.5012927e-07 5.8538662e-06 2.7729112e-07 8.382984e-06 3.431701e-06 2.1568787e-06 8.0760407e-07
1.7515e-07 2.5875428e-07 2.7268767e-05 3.4652794e-07 1.4141414e-05 2.408535e-06 9.862221e-07 3.642173e-07
1.972162e-07 2.3524761e-07 1.7717616e-06 1.6895559e-06 4.3167725e-07 7.639164e-07 1.0377935e-06 4.0517105e-05
1.2497475e-05 5.9867166e-06 2.2087876e-07 3.8634447e-05 1.6334187e-06 1.7870879e-07 5.1105417e-07 2.4006536e-06
2.5248813e-05 1.4169315e-05 6.5465374e-06 2.130255e-06 4.533286e-07 2.4602093e-07 2.2051445e-06 1.7674116e-05
2.8973702e-07 2.8918524e-07 1.4565109e-07 1.1087922e-06 3.308836e-06 1.5481223e-06 7.150985e-06 3.4659354e-07
1.3500282e-05 8.668866e-06 2.4036462e-05 3.8151434e-06 4.7304067e-05 6.9736834e-06 1.4570032e-06 3.2156017e-06
9.5365647e-07 7.7062e-08 5.2020705e-06 6.3794374e-07 5.537367e-08 3.965353e-08 5.1769043e-06 1.8221255e-07
1.2244041e-07 1.1731081e-07 2.952079e-07 8.449528e-08 5.697554e-07 8.535022e-07 8.35336e-08 5.0941267e-08
8.480309e-08 1.17895446e-07 7.526363e-07 7.2883665e-08 3.678087e-07 2.1939441e-07 1.1417501e-07 2.3754464e-07
5.0778162e-08 3.2920074e-08 1.6701135e-07 1.1573615e-06 7.068085e-07 4.0617323e-08 7.2299095e-08 7.823076e-07
5.9864583e-06 1.5760229e-06 2.1906422e-08 6.674117e-07 6.96371e-07 8.1132754e-08 1.9456513e-07 2.4731605e-07
1.2008853e-05 6.1036476e-06 3.943245e-06 1.2998333e-07 2.4072853e-07 5.7571975e-07 1.8790297e-07 7.1104023e-07
1.9391709e-07 7.902476e-08 4.5478604e-08 1.0846335e-06 2.317139e-06 5.4581676e-08 3.468691e-06 4.7866325e-07
6.317074e-06 4.2252377e-06 8.024178e-07 1.4070811e-07 8.7299975e-07 5.6728294e-07 1.4865668e-07 5.291704e-07
8.828337e-07 1.5976385e-08 6.4873007e-07 1.208105e-08 2.792348e-08 3.5994e-09 7.925012e-07 6.110267e-09
1.6603106e-08 1.8002925e-08 1.1124759e-07 1.3222354e-08 1.5456074e-07 2.2935896e-07 4.377196e-08 2.1588999e-08
1.0588351e-08 5.4016915e-09 5.2349486e-07 5.6993437e-09 2.682323e-07 1.0232649e-07 4.724215e-08 9.147352e-09
2.9761227e-09 7.183022e-09 4.8716608e-08 7.767633e-08 2.173572e-08 1.9578506e-08 2.2351594e-08 7.6119267e-07
8.028943e-07 2.923059e-07 5.5893103e-09 7.231292e-07 7.970577e-08 3.6541974e-09 1.1598332e-08 5.755572e-08
1.5018409e-06 9.156978e-07 5.163027e-07 4.1188727e-08 1.0813549e-08 1.4370914e-08 8.141573e-08 3.4052164e-07
9.402251e-09 4.8876045e-09 2.3867734e-09 5.726734e-08 2.6471096e-07 3.37539e-08 4.0527735e-07 1.12417675e-08
9.1639447e-07 6.107259e-07 4.638799e-07 7.675516e-08 8.8429465e-07 1.2869725e-07 3.253829e-08 1.291099e-07
2.7658436e-05 2.4027768e-06 0.00016359176 2.0409156e-05 2.7502838e-06 1.127639e-06 0.00016467177 6.039118e-06
3.2418259e-06 4.7220205e-06 8.424465e-06 3.5078965e-06 1.668496e-05 3.4980792e-05 2.5045692e-06 2.3016494e-06
3.2356456e-06 3.841175e-06 2.1745998e-05 2.1045657e-06 1.1466911e-05 1.3402178e-05 5.5870682e-06 8.001708e-06
1.7483517e-06 1.0011563e-06 8.534066e-06 3.6593563e-05 2.2579805e-05 2.2079748e-06 2.9937119e-06 2.3304903e-05
0.00018791488 4.806795e-05 6.369661e-07 2.0424533e-05 2.2319284e-05 2.8385355e-06 6.484199e-06 1.2253496e-05
0.0003688243 0.00019060739 0.00013105091 3.9135803e-06 7.933737e-06 1.84733e-05 1.1558432e-05 2.0309073e-05
6.1813876e-06 2.4673727e-06 1.3907788e-06 3.452949e-05 7.8273064e-05 2.6189712e-06 0.0001092491 1.5577658e-05
0.00019956616 0.00013708697 2.28814e-05 4.659306e-06 2.5889936e-05 1.6354204e-05 6.033038e-06 1.621397e-05

exp_avg f4 [1, 64]
00000000: 7f3b 9bbb 5871 a7bb c967 87bb e9b4 9fbc
00000010: 9739 e238 49e1 38bc 3110 313b 746e 0f3a
00000020: 24f6 103a e770 de38 638d 5abc 4c72 2a39
00000030: 1510 623b e133 86bb 1b9b 89bc a48e bbbb
00000040: f27e 5eb8 2d3a 87b9 6f4d 2aba 393d 253a
00000050: b948 c9ba 3403 763b 3d4d 22bc 0400 293b
00000060: f8d9 613a 5e2d a039 a66f 0e3c ccf4 e438
00000070: 16d5 f5b6 dcdb 9fbb 0d84 e7b8 56e8 20ba
00000080: c4b0 b1ba 2cf2 00ba 3f30 bbb8 27ac 5fbb
00000090: 2e04 d43a 038e 12bc 4f6c fa38 892b 09bc
000000a0: c9c2 d03a bbbf 703b 16b1 54ba b52e cdb8
000000b0: 41bc c33b fc1c f0ba 406b 1f3c c14f 03b9
000000c0: 244e 3fbc bc54 d6bb 9215 803a bf32 e1ba
000000d0: f9e2 a4bb d57a 84b9 15c3 7dbb 8d1a ccbb
000000e0: 7faf a039 41cc 76bb fba2 7dbb 4e0b ff3a
000000f0: 5349 6c3b 6789 6739 c6b3 cab8 ca68 1aba
-0.004737317 -0.005109947 -0.004132245 -0.019495444 0.00010787247 -0.011284181 0.0027017707 0.0005471476
0.0005529842 0.000106068146 -0.013339373 0.00016255042 0.003449445 -0.00409554 -0.016797593 -0.005723791
-5.304715e-05 -0.0002579255 -0.0006496524 0.00063033734 -0.0015356756 0.003753853 -0.00990611 0.0025787363
0.0008615549 0.0003055138 0.008693611 0.00010917484 -7.3263755e-06 -0.004878504 -0.00011039535 -0.00061381364
-0.0013556709 -0.0004918899 -8.9258414e-05 -0.003412971 0.0016175562 -0.008944991 0.00011941103 -0.008372196
0.0015927191 0.0036735374 -0.0008113546 -9.7838616e-05 0.0059733693 -0.0018319185 0.00973016 -0.00012522844
-0.011676345 -0.006540863 0.0009772053 -0.0017181261 -0.00503194 -0.0002526852 -0.0038721014 -0.006228751
0.00030648333 -0.0037658366 -0.003870188 0.0019458325 0.0036054447 0.00022081063 -9.665596e-05 -0.00058902486

exp_avg_sq f4 [1, 64]
00000000: ffd4 ab3a ec76 c03a 0226 813a 9c0b 2c3d
00000010: 0225 3f39 46b9 4e3b dab0 b63a 8f44 a738
00000020: ff04 ba38 42dc 2c39 2a92 e63b 88ef e138
00000030: 1db3 823c b6cf 493b d495 1c3d d36c 9a3a
00000040: 70f9 f938 07e0 9c38 762f cc38 c1cf a738
00000050: ae0e 453b 73bb 973a f71d d93b 4ec3 073b
00000060: 875b 153c 24da 3539 cb93 9c3b d53e 5f39
00000070: 8d51 8237 746d b03a a865 b23b dfe6 2239
00000080: 52a4 553a 525e 0a39 9bc6 4e38 eaaa c33a
00000090: c83a aa39 a080 b03b 24c9 a738 fdc7 213b
000000a0: a797 8c39 0504 0d3b 2f88 073a 249a ec38
000000b0: ea1b 723b 21a3 6939 47bf 423d 708a 9638
000000c0: fad9 b53b 49d4 133a 70af dd39 55d9 c539
000000d0: 4009 ac39 eece e536 3832 6e3a 1eae 003a
000000e0: d08d ce36 772a b83a 76e0 aa3a 532d fa39
000000f0: 378d 953a f112 1139 430b fc38 8a85 2538
0.0013109742 0.0014683879 0.0009853246 0.04200326 0.00018228966 0.0031543537 0.0013938204 7.9759506e-05
8.870102e-05 0.0001648525 0.007036467 0.00010773452 0.015954548 0.0030793971 0.038228825 0.00117817
0.000119197066 7.480388e-05 9.736318e-05 8.001878e-05 0.0030068564 0.001157625 0.0066258865 0.0020715776
0.00911606 0.00017342769 0.0047783605 0.00021290344 1.5535183e-05 0.0013460354 0.0054442473 0.0001553553
0.0008149791 0.00013195843 4.9299193e-05 0.0014928256 0.00032468722 0.005386427 8.000646e-05 0.0024685853
0.0002681587 0.0021517288 0.0005170134 0.00011282068 0.0036942908 0.00022281382 0.047545698 7.1783434e-05
0.0055496665 0.0005639238 0.00042283116 0.00037736693 0.00032813288 6.8488216e-06 0.00090864627 0.0004908758
6.1557876e-06 0.0014050741 0.0013036865 0.00047717485 0.0011409883 0.00013835334 0.00012018394 3.9463433e-05
