Scene/result/SNH_500_1000_dt013/nc_FEM_999999999.pt (torch, 57090 bytes, 9 tensors)

linear_gelu_stack.0.weight f4 [64, 3]
000000 6e 3c a7 bd 71 c1 a6 3f 23 71 eb bd 6b 2e 86 bf
       -0.08165823 1.3027784 -0.114961885 -1.0482916
000010 97 f8 12 3f 17 9c 6a bd b7 06 14 be af 4e 98 be
       0.5741057 -0.057277765 -0.14455687 -0.2974753
000020 d2 0c bc be 9a 18 0c bf 9e fc d7 be d4 c2 8e 3f
       -0.3672853 -0.5472504 -0.4218492 1.1153207
000030 8e 13 aa 3e b7 9d 19 bf de 55 d8 3f 7c 51 f2 3b
       0.33218044 -0.6000628 1.6901205 0.0073949676
000040 5e 5a b8 bf 75 ba 3d be d5 0c 99 be 79 82 e5 bd
       -1.4402578 -0.18528159 -0.29892603 -0.11206526
000050 5f 03 5a bf c2 57 ee 3e 14 bd 8f bf 00 03 ab 3f
       -0.85161394 0.4655133 -1.1229577 1.336029
000060 bc 29 4b 3f d3 be 4d bf 8b 26 98 3d 76 96 93 bf
       0.79360557 -0.803693 0.074292265 -1.1530292
000070 7d b1 81 3e 53 39 0b bf f6 d2 07 bf 24 d5 91 3f
       0.25330725 -0.54384345 -0.53056276 1.139317
000080 f2 d6 b5 3d 23 88 14 bf 82 ab c0 3e b3 49 93 be
       0.08878888 -0.5802023 0.3763085 -0.28767166
000090 a0 be be be 10 0a a4 3f 6c 55 15 bf 6b 30 56 bf
       -0.3725481 1.2815571 -0.5833347 -0.8366763
0000a0 ae e7 96 3e 3f e6 b4 bf 65 fa b9 be 8b 49 ee 3e
       0.29473633 -1.4132766 -0.36323848 0.46540484
0000b0 0b 7a 14 3f 64 f9 79 3f 31 1a 8c bd bc ae 6e 3e
       0.5799872 0.97646165 -0.06840933 0.23308843
0000c0 02 8e 0b bf 4b 05 d5 3e 2f cb bb be 87 8b 2a 3f
       -0.5451356 0.416056 -0.36678454 0.6661915
0000d0 13 7b 8a bf e8 6e 95 3f 13 f8 f9 3e 64 c4 94 3f
       -1.0818809 1.1674471 0.48822078 1.1622434
0000e0 3b 72 0d bf b9 4d 6d 3f d0 22 77 bf db a1 1d 3f
       -0.55252427 0.9269672 -0.96537495 0.61575097
0000f0 02 aa 2b 3f 56 a6 51 3f 33 c8 ab 3e 7c fc 6c bf
       0.67056286 0.81894433 0.33551177 -0.9257276
000100 74 67 03 3e 60 e9 c5 bf 7a 0b d5 be ab db 26 3e
       0.12832433 -1.5461845 -0.41610318 0.16294734
000110 ee 56 8c bf 10 ae 8f be 28 55 48 bf dc 08 b9 3f
       -1.0964029 -0.28062487 -0.7825494 1.4455829
000120 96 36 67 3f 67 ca 83 bf eb f0 59 3f a4 1e 52 bf
       0.90317667 -1.0296143 0.85133237 -0.82078004
000130 25 b6 96 bf 34 6d 0e bf 1d 59 99 bf 81 28 73 3e
       -1.1774336 -0.5563538 -1.198032 0.2374592
000140 b8 24 8d bf 08 e5 bb be 0a 97 b4 bf 03 75 01 3f
       -1.1026831 -0.36698174 -1.4108593 0.5056917
000150 17 72 dd 3d d2 9f 75 bf 40 e4 cf 3f d2 b5 76 3f
       0.108127765 -0.9594699 1.6241531 0.96371186
000160 4f 19 7f bf 76 2c b2 3f 26 59 52 be 04 3a d4 bd
       -0.9964799 1.3919818 -0.2054182 -0.10362628
000170 21 a5 9c 3f bf 83 5a be 6a fd 95 3f 9e 2c bd 3d
       1.2237893 -0.2133932 1.1717961 0.09237026
000180 80 e6 47 bd a8 2e 41 be c1 a4 b4 be dd 1f 22 3f
       -0.048803806 -0.18865454 -0.35281947 0.6332987
000190 22 5d e3 be 0d e4 77 be 10 8b 2d bf 05 90 95 bf
       -0.44406992 -0.24208088 -0.6779032 -1.1684576
0001a0 6f 93 36 bf 14 27 64 3f 1f 4c 66 3f 86 0b fe 3e
       -0.71318716 0.8912213 0.899599 0.49618167
0001b0 d4 09 4a bf 87 fc 71 bf 58 72 10 bf d2 d9 e4 3d
       -0.78921247 -0.9452595 -0.56424475 0.111743584
0001c0 b7 50 a5 bf a0 af 32 3f 6d fa c4 be f2 11 99 3e
       -1.2915257 0.6979923 -0.3847231 0.29896504
0001d0 80 2d 4a 3f b5 40 2e bc 32 21 72 3f 2b 4b 92 bf
       0.7897568 -0.010635545 0.945819 -1.142919
0001e0 e2 f4 c3 be e2 3c c4 bf 02 b3 9d bc d7 4b 7e bd
       -0.38272768 -1.533108 -0.019250397 -0.062084045
0001f0 8f be 5d be 0d 05 31 bf 3b 60 8a bf 17 33 4a 3e
       -0.21654724 -0.6914833 -1.0810617 0.19746052
000200 0b b9 8f bf e9 9e 2c bf 5f 3d 77 3f 8e 8e d3 3c
       -1.1228346 -0.6742998 0.9657802 0.025824811
000210 23 23 03 bf ce 24 7d 3e eb c3 4d 3f 96 4c 04 bf
       -0.5122549 0.24721071 0.8037707 -0.5167936
000220 32 cf 4b bf 2b 9b 68 3f af 5e e1 be 0a 3b 8e 3e
       -0.7961303 0.9086177 -0.4401755 0.27779418
000230 6b 5a c9 bf 3d ae 46 3e f3 da 9d 3f b6 ff 33 bf
       -1.5730718 0.19402404 1.2332443 -0.7031206
000240 c8 f3 0c bf 0e b6 d5 bf 6d e3 40 bd 49 72 56 3f
       -0.5505948 -1.6696184 -0.04709189 0.83768135
000250 94 0c 7e bf 79 4d 42 3f 90 a7 83 3f d9 84 54 bf
       -0.9923794 0.75899464 1.0285511 -0.8301521
000260 d9 5b c4 3e 5e e0 32 bf b5 b0 ab bf 5d 2e e8 3e
       0.38351324 -0.6987361 -1.3413302 0.45347872
000270 b1 c9 76 bf 23 88 70 3e 27 01 37 bf 9a 56 a2 bc
       -0.96401507 0.23489432 -0.71486133 -0.019816685
000280 7c f6 dc bc 7b 80 91 3f 7c d6 de bd ca 79 15 bf
       -0.026973002 1.1367334 -0.108807534 -0.5838896
000290 17 05 90 bd c6 df e5 be 1e ce 3b bf 8e 5c b5 3f
       -0.07032221 -0.44897288 -0.73361385 1.416887
0002a0 c3 dc ae bd 72 c4 0d 3e 73 d5 98 be 07 16 7f be
       -0.08538201 0.13844469 -0.2985035 -0.24910747
0002b0 73 73 b0 3e a0 95 24 bf 09 87 3e bd f4 ed a0 3f
       0.3446308 -0.6429081 -0.0465155 1.2572618
0002c0 6c 51 5b bf d7 2b 48 3f f9 72 41 3f 2f 2e 7d 3f
       -0.85671115 0.78191894 0.7556606 0.98898596
0002d0 65 05 a3 3c 0c b1 96 3f 71 e1 b7 3e 17 05 99 3e
       0.019900033 1.177278 0.35914186 0.29886696
0002e0 c1 84 4e 3f 8b 0f 93 bf 20 7f 82 bf 30 10 46 3f
       0.80671316 -1.1489118 -1.0195045 0.7736845
0002f0 6d 13 ab be 42 d5 21 3f 94 fa 4c bd 03 ae 4b bf
       -0.33413258 0.6321603 -0.050043657 -0.79562396

linear_gelu_stack.2.weight f4 [64, 64]
000000 44 13 a4 be 2b 45 87 be 94 b6 5a 3d 2c d2 0a 36
       -0.32045949 -0.26419958 0.053396776 2.0685939e-06
000010 87 c8 e2 3e d2 b7 68 be b8 94 2c bd 05 94 10 be
       0.44293615 -0.22726372 -0.042134017 -0.14118965
000020 04 ed 3b be 95 f2 8c 3d 75 11 9f be 80 1a 9e 3d
       -0.18352133 0.06882206 -0.31068006 0.07719898
000030 df 81 07 bf 15 31 b2 be da 4b 83 be e9 fe f2 bd
       -0.5293254 -0.34803072 -0.25643808 -0.118650265
000040 cb f0 88 be b8 91 35 3e 98 33 e1 be 17 a5 de bd
       -0.2674621 0.17731369 -0.43984675 -0.10871332
000050 59 7b d5 bd 4a 40 dd 3c b2 ab 7d bd 2a fb ce bc
       -0.10423917 0.027008194 -0.06193132 -0.025266249
000060 17 6a 6a 3e 27 72 c5 be f9 8b d8 3d b8 6b b2 be
       0.22892033 -0.38563654 0.10573573 -0.34847808
000070 3c 8e 6a 3e 84 3f 96 3e 06 79 c5 3e 2a 4f 11 bf
       0.2290582 0.29345334 0.38568896 -0.5676142
000080 d2 68 33 be e8 7e 27 be c7 36 ba be d9 8d ea be
       -0.17520455 -0.16357005 -0.36369917 -0.45811346
000090 b6 6c 8d be d6 00 34 be bd 6b 3a 3e dc dd e4 be
       -0.27622002 -0.17578444 0.18205161 -0.44700515
0000a0 5b 65 c9 bc 7d 59 87 be cc 16 64 be 22 7e 94 be
       -0.024584463 -0.26435462 -0.22274321 -0.29002482
0000b0 6e 5c 2c 3d 45 86 8a bd c6 c8 0b be 78 55 d3 be
       0.042080335 -0.06763891 -0.13650808 -0.41276145
0000c0 21 49 df be 9c 23 92 bd 2b 7a 32 3e 70 c8 dc be
       -0.4361048 -0.07135698 0.17429416 -0.43121672
0000d0 32 6a f8 bc 68 8c c5 3e b1 6f 6d bd 98 1f b5 3c
       -0.030324075 0.38583684 -0.057967845 0.022109792
0000e0 b9 02 18 be af 19 49 be fc 43 00 bf 84 7a 5a bd
       -0.14844789 -0.19638704 -0.50103736 -0.053339496
0000f0 04 d0 07 bf 1f 3d ab be ec 88 eb be 34 f5 ba be
       -0.5305178 -0.3344507 -0.460029 -0.365152
000100 2a fd 6c be 76 9b ea bd 22 93 66 3d 62 95 f7 bd
       -0.2314345 -0.11455433 0.05629266 -0.120890394
000110 26 55 79 3e 65 41 a7 3d 07 d0 5f 3e 96 6b c9 bd
       0.24348888 0.0816677 0.218567 -0.098349735
000120 fe 52 82 be 36 7e 4f bc a3 39 5f be ee b5 b5 bd
       -0.25453943 -0.012664368 -0.2179933 -0.08872591
000130 5c 0e 95 bd 9a 7d a9 3c c5 43 dd 3d 1a 70 d3 3d
       -0.072781295 0.020689774 0.10803942 0.10324116
000140 a0 11 7c bd 96 b3 96 3d 31 a5 07 be 93 7e fe bd
       -0.061540246 0.07358472 -0.1324661 -0.12426486
000150 d9 e4 81 be 78 8f 96 3d f8 2b d1 3d ce e7 33 3e
       -0.2536991 0.07351583 0.102134645 0.17568895
000160 26 8f 2d be bc 3f f4 bd a1 63 e4 bc d8 05 8a 3d
       -0.16949138 -0.11926219 -0.027879538 0.06739396
000170 8a dc 28 3e 8d 99 1c 3e 8e 25 a8 3d f0 d7 0a bd
       0.16490379 0.1529295 0.08210288 -0.03389734
000180 0c 02 5b bd 71 98 33 3d f0 3e b8 3d 84 34 96 be
       -0.05346875 0.04384655 0.089963794 -0.2933694
000190 84 eb f9 3c 1c 94 8f bb f8 5a 38 bd 5b 31 75 bd
       0.03050781 -0.0043816697 -0.04500863 -0.059861522
0001a0 f2 ac cf 3d a8 d6 2f 3e 6a 5b 8a 3d ba 83 64 be
       0.101404086 0.17171729 0.06755717 -0.22315875
0001b0 f0 b7 00 bb ac 97 01 3d b3 35 a8 bd 27 0f 9e bd
       -0.0019640885 0.031638786 -0.08213367 -0.07717734
0001c0 46 b0 e8 3d fd 0c d7 bd 4b 6d 5c be d8 e3 0c 3d
       0.113617465 -0.10500524 -0.21526067 0.034396976
0001d0 5c a3 8c 3e 27 0b 0e 3e b4 93 f2 bd e3 84 7d bd
       0.27468383 0.13871442 -0.118445784 -0.06189431
0001e0 0b 7a a9 bc f5 be 10 be 5f 48 0c be 1c 77 39 3d
       -0.020688077 -0.14135344 -0.13699482 0.045279607
0001f0 0b 62 8a be df c0 9c be 89 c6 13 be cd a5 da bd
       -0.27027926 -0.306159 -0.14431204 -0.10676155
000200 51 05 3e bf e0 42 9e bf 8f 35 b7 bd d6 e9 d7 3f
       -0.7422686 -1.2364159 -0.08945762 1.6868236
000210 aa 3f 09 40 28 9e a2 3e 3b 1d da be e4 bd 07 40
       2.1445107 0.3176129 -0.42600426 2.120965
000220 be 11 97 3e 2d 26 98 bf 78 fb 76 bf 68 90 26 bf
       0.29505724 -1.188665 -0.9647746 -0.65064096
000230 74 ef c5 bf c8 d4 06 c0 06 3a d2 bd 9c fc 39 3e
       -1.54637 -2.1067371 -0.10264973 0.18162769
000240 68 e6 80 bf f4 63 06 40 fc c2 91 bf da ad bc 3f
       -1.0070314 2.0998507 -1.138763 1.4740555
000250 c1 47 9e be 86 76 a7 bf 8a 88 45 bf c5 c3 c0 3f
       -0.3091412 -1.3083045 -0.7716147 1.5059744
000260 b8 d9 0b 40 81 5e 9e bd 64 2f ad bf e7 81 c7 3e
       2.1851635 -0.07732869 -1.3530087 0.38966295
000270 73 6f 40 40 f1 ed 92 40 7d 4a 39 3f dc d0 25 bf
       3.0068023 4.5915456 0.72379285 -0.6477182
000280 92 46 61 bb ee c3 24 3e ff ed 92 3d e1 0c 45 be
       -0.0034374339 0.16090366 0.071743004 -0.19243194
000290 82 c8 b8 bd 8f 7e e2 3e e3 d0 44 3e 1d 87 25 c0
       -0.09022619 0.44237182 0.19220309 -2.5863717
0002a0 21 98 a7 3c 23 72 2a be 56 e6 99 bf 88 b6 78 bf
       0.020458283 -0.16645102 -1.2023418 -0.9715352
0002b0 a0 f1 8a 3e 82 2f 16 3f e1 34 13 c0 62 42 90 bf
       0.2713747 0.5866624 -2.3001025 -1.1270258
0002c0 a7 28 f2 3e f6 50 cd 3f db 4b 17 40 75 e2 8e 3e
       0.4729664 1.6040332 2.3640049 0.27907148
0002d0 bb f1 5e bf e2 4a 20 3f 14 b4 53 3d 2f 55 c5 3f
       -0.870876 0.6261426 0.051685408 1.5416621
0002e0 70 d2 56 be 4e 62 4f bf f2 c6 ef bf 3b fd 0d bd
       -0.20978713 -0.81009376 -1.8732588 -0.034665328
0002f0 6f 37 1c bf e4 4e 0e c0 ee 0b 10 c0 7a 6e 32 bf
       -0.61022085 -2.223565 -2.2507281 -0.69699824
000300 2b 72 09 bf 85 ef be be 00 cc 9c 3d 3c 1c ec 3d
       -0.5368983 -0.37292114 0.076560974 0.11528823
000310 74 8e 4b 3f bc d2 c8 bd a4 a7 9b bc 10 b0 77 3e
       0.7951424 -0.098058194 -0.019000836 0.24188256
000320 d5 31 7c 3c 73 ba 85 be f9 5e 2d bf 47 2a a7 bd
       0.01539274 -0.26118812 -0.6772304 -0.08162361
000330 80 5f 3d bf c4 e6 8e 3d d2 2e 39 be 08 90 05 3e
       -0.73973846 0.06977609 -0.18084267 0.13043225
000340 4c d9 8e bd b2 be c1 3e e2 d6 00 bf ac 0c 9f 3d
       -0.0697504 0.378408 -0.50327885 0.07766089
000350 a4 e5 1a bf e7 3e 67 3e 9f 71 c6 bd a0 61 82 3e
       -0.60506654 0.22582589 -0.0968964 0.25465107
000360 c0 65 ac 3e a4 b9 0d be 05 22 75 3c 6b 28 8f bd
       0.3367138 -0.13840348 0.014961724 -0.06990131
000370 13 f1 03 3f 99 03 56 3f 15 79 0a 3e 14 cd 24 bf
       0.51539725 0.8359924 0.13522752 -0.64375424
000380 7c b8 e4 3d 94 0f e4 3d 3d 16 6c be 60 46 36 bf
       0.11168 0.11135784 -0.23055358 -0.71201134
000390 cd d5 5f be 86 13 34 3e 22 87 20 3e 53 34 5e bf
       -0.21858902 0.17585573 0.15676549 -0.8679859
0003a0 ac e0 53 3d d6 df 11 3d 7f ab 21 be 4c 34 ac be
       0.051727936 0.035613857 -0.15788077 -0.3363365
0003b0 6b 67 54 3e b3 b4 a0 3e 03 12 79 be ca 9e 3d bf
       0.20742576 0.31387863 -0.24323277 -0.7407042
0003c0 57 07 f3 bd 4d a3 1a 3e ac 3a 86 3e cf 54 91 3c
       -0.11866634 0.15101357 0.26216638 0.017740635
0003d0 42 c0 31 3e 47 57 70 bc df 94 95 3d 7b 7d 69 3e
       0.17358497 -0.014669246 0.073037855 0.22801773
0003e0 08 3e 3a 3b 94 17 e3 3d 1c 70 29 bf 32 7a fd be
       0.002841832 0.110884815 -0.6618669 -0.4950729
0003f0 90 cb 32 bf e9 88 52 bf 21 3b 31 bf 1b 81 01 3c
       -0.6984186 -0.8224016 -0.6923085 0.007904316

linear_gelu_stack.4.weight f4 [1, 64]
000000 f3 f7 91 bd c1 77 14 3d e8 5d 39 40 cc 3e ac 3e
       -0.07127371 0.03624702 2.8963566 0.3364166
000010 49 2b 2b be 6c ba 08 bf a6 e0 7e be eb 2e 92 3c
       -0.1671573 -0.5340946 -0.24890384 0.017844638
000020 77 1f 0d bf 73 c3 80 bd 13 27 96 be 98 f2 41 be
       -0.55126137 -0.06287279 -0.29326686 -0.18940198
000030 ed fb b4 3d 00 f0 01 3e 57 87 2b bd 73 4a 20 3e
       0.088371135 0.12689209 -0.041877117 0.156534
000040 e0 0d 4a bc e3 e8 14 bf 4d 97 75 3d 1e 80 ca be
       -0.01233241 -0.58167857 0.059958745 -0.3955087
000050 0b a4 fd ba 06 6b bd be ad d7 4f 3f 16 bf 43 3e
       -0.0019351257 -0.36995715 0.8118847 0.19115862
000060 07 e0 c5 3f d8 39 e3 be 81 e3 59 40 c6 43 d3 be
       1.5458993 -0.4438007 3.4045107 -0.41262645
000070 91 6d 07 3d 31 94 b7 3c 93 c9 68 bc 6f 58 da bd
       0.033063475 0.02240953 -0.014208215 -0.106613986
000080 83 4a 35 be 92 2d 38 be 19 6d 28 be 1a c0 e4 3f
       -0.17704205 -0.17986134 -0.16447867 1.7871125
000090 4c 59 07 bf 91 10 e8 3c a7 4f c0 be f9 02 03 3d
       -0.5287063 0.028328212 -0.3756077 0.031985257
0000a0 81 75 2b be d9 2c 55 3f 45 93 4c be ea 2a bd be
       -0.16744043 0.8327156 -0.19978054 -0.36946803
0000b0 31 01 2f be ea 1c 92 3d 7b 1a 1d be cd c5 4c bf
       -0.17090298 0.07134421 -0.15342133 -0.7998932
0000c0 7f 10 78 bc ac 21 48 3d c9 60 89 3c a6 8e 96 3d
       -0.015140652 0.048860237 0.016769784 0.07351427
0000d0 81 ac b8 3c f5 5e 2e be 68 9b c7 3e cc d4 80 bc
       0.022543194 -0.1702841 0.38985753 -0.01572647
0000e0 9d 7c b8 bd b5 57 b2 be 62 7e 3e 3d f7 2e 3f be
       -0.09008143 -0.3483254 0.046507247 -0.1867026
0000f0 fe 4b a1 3d ec ec 29 bf 41 9d dd be 29 bb a3 3c
       0.078758225 -0.6637714 -0.43284038 0.019986706

exp_avg f4 [64, 3]
000000 13 75 26 3b 9f b1 07 3b dc 52 89 3b 36 9c 6e 39
       0.0025399372 0.0020705236 0.004190786 0.00022755642
000010 64 9f 55 bb e8 6b 6f 3b 9a 71 37 b9 f5 3d 81 ba
       -0.0032596225 0.0036532823 -0.0001749456 -0.0009860384
000020 41 2a 0d 3a 2f 16 66 bc 00 0c d9 bc 6e 5c 3e bc
       0.00053850195 -0.014043375 -0.02649498 -0.011618717
000030 b1 8f 86 bc 8d 93 06 bd 42 ee 77 bc 6b 14 f4 ba
       -0.01642594 -0.03285556 -0.015132489 -0.0018621808
000040 cc b3 6c bb 26 d5 e1 ba e3 b1 fe 3a 38 0f 6e 3b
       -0.003611791 -0.0017229661 0.0019431676 0.003632499
000050 d1 71 08 3b dd fb a6 bc e9 47 1c bd 6c 9f 90 bc
       0.0020819793 -0.02038377 -0.038154516 -0.017654143
000060 9d 34 57 bb 91 1b df bb d9 a8 2b bb 20 88 a6 3c
       -0.0032837756 -0.006808706 -0.002619317 0.020328581
000070 5a c8 33 3d 03 c3 58 3c 6c 2a 6a 3b 87 c4 69 3b
       0.043892242 0.013230088 0.0035730852 0.0035670118
000080 e0 66 a9 3b 60 53 68 3a 14 07 35 39 95 87 1d 3b
       0.0051697344 0.00088625215 0.00017264142 0.0024037112
000090 8c 3a c1 3b f5 01 41 3c 6a 5f cf 3b af 88 e0 3c
       0.005896872 0.011780252 0.006328513 0.027408926
0000a0 e2 1e 72 3d 2c 63 91 3c db 12 86 ba a9 b9 a5 bb
       0.059111483 0.017747484 -0.0010229008 -0.005057533
0000b0 c7 63 cf 38 3f 1e 0e bb 04 9f ef bb 4b d9 91 ba
       9.889114e-05 -0.0021685509 -0.0073126573 -0.001112738
0000c0 6f a1 f9 3a 89 98 15 3b a4 c3 40 3b 5c 93 90 bc
       0.0019045303 0.0022826514 0.0029413486 -0.017648391
0000d0 3b fc 09 bd 9d 0f 7c bc 99 42 6c 3b 73 f6 a5 3b
       -0.03368781 -0.015384582 0.0036050437 0.0050647794
0000e0 65 97 9d 3b 69 48 31 bc 59 8e af bc 18 07 17 bc
       0.0048093074 -0.010820487 -0.021430181 -0.009218
0000f0 34 07 3f 3a ae 45 e4 ba ec cf 19 3b 28 c9 c6 3c
       0.0007287145 -0.0017415786 0.0023469878 0.02426584
000100 bd e2 59 3d 61 1b 73 3c 20 eb 25 3c ef 6f aa 3c
       0.05319475 0.014838071 0.010126859 0.020805327
000110 49 eb eb 3b b5 33 91 bc f5 98 08 bd b7 f9 73 bc
       0.007199679 -0.017724851 -0.033348996 -0.01489108
000120 99 b8 5e bc ab 53 db bc b8 14 44 bc 56 cb 4a ba
       -0.013593816 -0.026773294 -0.01196783 -0.0007735988
000130 16 53 fc ba 46 2f 4d b9 f6 d6 c4 3c ba f7 57 3d
       -0.0019250836 -0.00019567934 0.024028283 0.052726485
000140 03 58 72 3c e6 ca f1 bb 62 0e 57 bc 19 fb cb bb
       0.014791491 -0.0073789237 -0.013125988 -0.0062250015
000150 7f a2 e4 bc 81 2b 55 bd 6f 9c c5 bc c1 9b ff bc
       -0.027909515 -0.05204344 -0.024122445 -0.031202199
000160 4f 9b 7c bd d2 d4 e5 bc d8 b8 fe bb d5 60 85 bc
       -0.06167155 -0.028055582 -0.0077735 -0.016281525
000170 00 81 e3 bb 68 6e 1c 3b 6b e4 89 3a 37 9d 89 3b
       -0.006942868 0.0023869518 0.0010520344 0.0041996497
000180 2e ec f6 b8 f8 4b 0a ba d0 fd a2 39 35 3e 78 ba
       -0.00011774186 -0.00052756025 0.00031088153 -0.0009469719
000190 a2 29 e2 ba af e9 4e ba 95 bb 4f b9 39 63 83 ba
       -0.0017254839 -0.0007893098 -0.00019810938 -0.0010024077
0001a0 46 11 1a 39 c1 03 42 39 70 ee 43 bb 7b 93 fe 3a
       0.0001469302 0.0001850268 -0.0029896758 0.0019422615
0001b0 65 e0 da b9 26 cd 74 ba 59 0e 5d b8 20 f6 0f bc
       -0.00041747387 -0.0009338431 -5.270387e-05 -0.008786708
0001c0 e8 fb 84 bc 59 92 ef bb 99 4a 43 bb 66 83 14 bc
       -0.0162334 -0.007311147 -0.0029799102 -0.009064531
0001d0 1e 49 c6 ba 10 be 32 3c f7 db c4 3c 7f 81 24 3c
       -0.0015127992 0.010909572 0.024030669 0.01004064
0001e0 23 de 67 bb 19 25 c2 bb 3e ce 52 bb 05 77 eb 39
       -0.0035380207 -0.0059248325 -0.0032166387 0.0004491137
0001f0 73 68 30 3a 3f 80 7f 3a 05 eb 94 3c 5d 98 21 3d
       0.00067294313 0.0009746588 0.018178472 0.039451946
000200 b3 c3 3d 3c af fb 59 3b d7 ac 3b 3b e8 bb a0 3b
       0.011582303 0.0033261587 0.0028636956 0.0049052127
000210 87 4f a1 bb 06 43 4c bc 9f b0 4c bb 42 55 fa bb
       -0.0049228105 -0.0124671515 -0.0031233204 -0.007639558
000220 be e5 72 bc e4 ff c2 bb d2 bf e2 3c 42 32 71 3d
       -0.014825283 -0.0059509147 0.027679358 0.05888582
000230 7f 8c 97 3c 76 ff 95 3b e0 67 12 3c a2 87 a5 3b
       0.018499611 0.0045775725 0.008935899 0.005051569
000240 84 04 1b bb 28 de 67 bb d2 a9 2b bb 71 6a 38 bc
       -0.0023653815 -0.0035380218 -0.002619375 -0.011255846
000250 17 3e b4 bc ef 05 1e bc a0 97 59 bc 6a 73 d7 bc
       -0.022002263 -0.009644969 -0.013280779 -0.02630015
000260 4a 27 44 bc ed 55 88 bb df 80 f2 bb b6 88 74 bb
       -0.011972258 -0.004160634 -0.0074006165 -0.0037312931
000270 ce d1 24 3c e2 32 ad 3c 66 35 f1 3b aa f3 9e bb
       0.010059787 0.021142427 0.007361102 -0.0048508244
000280 f6 bb 41 bc ed e6 83 bb 62 88 37 ba 7f 35 c4 ba
       -0.011824599 -0.004025331 -0.00070012186 -0.0014969556
000290 ff 93 1f ba cb d2 96 bc 55 80 0d bd 90 63 78 bc
       -0.0006087422 -0.01841106 -0.034546215 -0.015160456
0002a0 5d c3 24 3a d2 cf 9e 3a a8 d3 5f 3a 1d eb 0f 3b
       0.0006285215 0.0012116379 0.0008538314 0.0021960207
0002b0 ea 6f 59 3b 9b 1a 3b 3b 08 1d db 3b 22 16 5f 3c
       0.0033178278 0.0028549794 0.0066868104 0.013616117
0002c0 d3 8d e3 3b 3c 20 a0 ba 08 84 a8 bb ad ad 83 39
       0.006944397 -0.0012216638 -0.0051426925 0.00025115666
0002d0 8f ab a1 3a bc 21 82 ba f8 d0 45 3b 47 12 1e 3c
       0.0012334454 -0.0009928267 0.003018437 0.009647912
0002e0 02 a9 a0 3c fb b6 1e 3c f4 b8 b4 3b 11 be fa 3b
       0.01961184 0.009687181 0.005515212 0.007652052
0002f0 0c 52 00 3c 55 d0 35 3b b7 01 a9 3b fb 97 35 3b
       0.0078320615 0.0027742584 0.005157675 0.0027708996

exp_avg_sq f4 [64, 3]
000000 39 a7 84 39 f0 81 ac 3a ec ad 97 39 91 4f d2 39
       0.00025301593 0.0013161283 0.00028930546 0.00040113603
000010 16 f5 6a 3a f8 d3 b6 39 5b 1e 00 38 63 c6 b5 38
       0.0008962912 0.00034871674 3.054585e-05 8.667705e-05
000020 35 48 16 38 00 f9 37 3a 0f 00 ed 3a 6e a8 bd 39
       3.5830035e-05 0.0007018 0.0018081683 0.0003617438
000030 f3 e2 b7 3a 78 9e be 3b 0c 02 bf 3a 6f 96 de 38
       0.0014029428 0.005817231 0.0014572754 0.00010613805
000040 51 49 86 39 55 f7 03 39 2e c3 4e 38 86 a6 24 39
       0.00025613097 0.00012585272 4.9296003e-05 0.00015702294
000050 71 28 57 38 d2 fb ad 3a cb 1c 89 3b 71 0f 88 3a
       5.129766e-05 0.0013273901 0.0041843406 0.0010380578
000060 47 24 cb 38 1c e8 96 39 f7 d7 f9 38 c9 5a 83 3a
       9.6865515e-05 0.00028783164 0.00011913472 0.0010021563
000070 45 57 76 3b a3 53 1b 3a af 63 0d 39 23 18 37 3a
       0.0037588638 0.00059252436 0.00013483943 0.00069844926
000080 42 5b 27 39 36 6b da 38 65 85 8f 39 d9 72 1b 39
       0.00015960357 0.0001041502 0.00027374472 0.00014824736
000090 57 8f f3 39 06 58 04 3b 2f 4c 19 3a 50 53 d8 3a
       0.00046455368 0.0020194068 0.0005847839 0.0016504321
0000a0 f7 b8 d8 3b 3a da 67 3a 63 b9 84 38 0f be 69 39
       0.0066138464 0.0008844469 6.3287815e-05 0.00022291414
0000b0 90 56 a7 38 d4 97 e9 38 67 41 d8 39 e0 0b 0c 39
       7.979304e-05 0.00011138586 0.0004124746 0.00013355864
0000c0 08 0f f5 38 07 94 b4 39 10 33 2b 39 4c de 77 3a
       0.0001168531 0.00034442564 0.00016326853 0.0009455427
0000d0 15 a0 59 3b c1 72 63 3a 4b 41 9b 39 96 c6 c2 3a
       0.0033206989 0.00086764625 0.0002961255 0.0014860209
0000e0 80 04 bd 39 71 4d e6 39 bb c0 d4 3a 35 88 02 3a
       0.00036052242 0.00043926717 0.0016231755 0.0004979403
0000f0 c8 e4 80 38 a4 88 a9 39 3c 9f ad 38 5a 1a a6 3a
       6.1461295e-05 0.00032335997 8.2789426e-05 0.0012672648
000100 b4 2a b0 3b ad 9e 49 3a 14 83 98 39 66 d4 6d 3a
       0.0053761844 0.0007691186 0.0002908936 0.00090724824
000110 09 9b c8 38 3b 2f 90 3a 08 a7 52 3b df e6 3f 3a
       9.565621e-05 0.0011000404 0.0032143015 0.0007320474
000120 96 d9 1c 3a c2 91 15 3b f6 a2 29 3a e9 b7 c2 38
       0.00059833506 0.0022822474 0.00064711215 9.284897e-05
000130 e2 18 86 39 0a d3 00 39 5b ef a5 3a b7 50 af 3b
       0.0002557701 0.0001228565 0.0012659834 0.005350198
000140 7e ca 63 3a db 91 62 39 a4 ea 08 3a d1 da 7a 39
       0.00086895365 0.00021607375 0.00052229525 0.00023923373
000150 59 37 40 3b fa 6a 09 3c 37 e8 ec 3a 37 59 ab 3b
       0.0029329865 0.008387322 0.0018074577 0.005229141
000160 67 01 ab 3c 22 35 b6 3b b3 56 5a 39 bd ee 61 3a
       0.020874692 0.005560533 0.00020822398 0.00086186436
000170 f5 df 62 39 3c 36 0c 39 47 3c 3f 3a f6 8b 2f 39
       0.0002163647 0.00013371644 0.0007295054 0.0001674144
000180 84 b5 1e 38 89 1e a2 38 5f 3a 34 38 3d 6d 4f 38
       3.7839185e-05 7.7304496e-05 4.2969707e-05 4.9454382e-05
000190 29 2b 0b 39 e7 81 80 38 64 9f f5 38 d6 4f 94 39
       0.00013272151 6.127712e-05 0.00011712199 0.00028288242
0001a0 24 43 1e 39 33 f0 b4 38 81 2a e2 39 bf 13 eb 38
       0.00015093066 8.6278094e-05 0.00043137747 0.00011209351
0001b0 7b 46 c3 38 86 65 77 39 3d 0a ee 38 35 1a 5d 39
       9.3114526e-05 0.00023593576 0.000113506314 0.00021085965
0001c0 05 e8 1f 3a 71 95 59 39 bc e1 d2 38 b1 a7 c8 39
       0.0006099942 0.00020750404 0.000100556266 0.00038271912
0001d0 87 13 09 39 70 89 16 3a 80 ba 10 3b c2 17 36 3a
       0.00013072613 0.00057425257 0.002208382 0.0006946289
0001e0 43 6f 38 39 94 e9 d3 39 43 c3 7b 39 46 f5 05 38
       0.00017589056 0.00040419085 0.00024009966 3.19381e-05
0001f0 6a 33 dd 38 f9 67 19 38 33 f1 3d 3a a1 98 4d 3b
       0.00010547678 3.6574875e-05 0.00072457193 0.0031371491
000200 a0 1a c0 39 5d 50 55 38 cb f4 75 39 48 4d a3 38
       0.0003664093 5.0858e-05 0.00023456213 7.7868404e-05
000210 c8 10 02 39 22 ea f5 39 52 53 12 39 ad 36 3c 39
       0.00012404018 0.00046904484 0.00013954684 0.00017949445
000220 11 49 08 3a d6 aa 46 39 72 5f f0 3a 11 af d4 3b
       0.0005198876 0.00018946393 0.0018338992 0.006490596
000230 68 ca 58 3a 8d d1 f6 39 36 9e 07 3b 77 4a 1d 3a
       0.0008269907 0.00047076904 0.0020693666 0.0006000171
000240 7c 26 61 39 38 48 f5 39 19 ba 90 39 ea 05 d8 39
       0.00021472009 0.0004678385 0.00027604474 0.00041203137
000250 92 be c2 3a 8e 08 e4 39 20 7f 31 3a 22 42 2a 3b
       0.001485782 0.00043493923 0.0006770957 0.002597936
000260 2b 25 46 3a 73 a2 24 39 6e 63 bf 39 56 d9 49 39
       0.0007558639 0.00015700776 0.0003650444 0.00019249818
000270 9a f9 74 39 6d fb 6a 3a 10 6e 0e 39 dd d6 3f 39
       0.00023362637 0.0008963857 0.00013583177 0.00018295222
000280 be 19 31 3a b9 67 47 39 e6 15 69 38 af 62 01 39
       0.000675585 0.00019016759 5.5571923e-05 0.00012339161
000290 7d 53 80 38 f1 40 92 3a eb fc 52 3b 7f 56 43 3a
       6.1190665e-05 0.001115827 0.0032194208 0.00074515486
0002a0 6f 73 a2 37 fa cc 6a 38 9a ec cb 37 07 74 32 38
       1.9365658e-05 5.5980847e-05 2.4309662e-05 4.2546566e-05
0002b0 13 69 0f 39 35 d5 62 38 e4 ee 13 3a aa 94 20 3b
       0.00013676686 5.4081163e-05 0.00056432025 0.0024502673
0002c0 75 14 33 3a f4 e2 cd 38 63 c6 d7 39 e1 b7 07 39
       0.00068313564 9.817435e-05 0.00041155805 0.00012943104
0002d0 24 01 41 39 d8 66 7f 3a 2a bb 63 39 3e ae c6 39
       0.00018406339 0.0009742803 0.00021718131 0.00037895323
0002e0 2a 58 cb 3a 8c 9e eb 39 de 07 75 39 52 56 2c 3a
       0.0015513946 0.0004494082 0.00023367952 0.0006574142
0002f0 75 b7 a1 39 18 a7 34 38 1e c3 21 39 89 eb 2e 38
       0.00030845 4.3070962e-05 0.00015426843 4.1704192e-05

exp_avg f4 [64, 64]
000000 fd 89 55 38 51 50 4a b5 07 bd a4 b7 86 e6 9f b6
       5.091167e-05 -7.536774e-07 -1.9638346e-05 -4.7654057e-06
000010 8c c9 9a 37 d6 e7 44 b8 fb 37 cd b7 68 56 2e b7
       1.8452083e-05 -4.6945956e-05 -2.4463972e-05 -1.0391326e-05
000020 23 ca 65 b7 98 1c bb b7 ff 73 1f 38 b2 9e 7b b6
       -1.3696527e-05 -2.2305452e-05 3.8016584e-05 -3.7494287e-06
000030 2b 22 ea 37 73 58 01 b8 64 12 d6 37 df a9 c6 37
       2.7910884e-05 -3.083837e-05 2.5519352e-05 2.3682542e-05
000040 ea 86 65 b6 bf 0f 03 b7 6c 3c 3e 38 1c 68 06 b7
       -3.420219e-06 -7.811875e-06 4.5355802e-05 -8.011262e-06
000050 ec 44 83 38 15 13 1b b8 69 15 c1 b7 76 d4 0c b7
       6.2594045e-05 -3.697265e-05 -2.3017363e-05 -8.394118e-06
000060 2d 95 e4 b6 50 ef 55 b8 4b 71 06 b8 f4 53 3b b8
       -6.812296e-06 -5.1006034e-05 -3.2053602e-05 -4.466246e-05
000070 32 be a7 b6 f4 d3 df 36 d4 01 a0 37 9b ee 48 38
       -4.9991295e-06 6.6705925e-06 1.9074338e-05 4.7905934e-05
000080 ed 0f 72 b7 8d 0d 1b b7 78 ea 53 b8 f7 68 a5 38
       -1.4428032e-05 -9.241875e-06 -5.0524686e-05 7.887364e-05
000090 92 73 41 b8 1e 13 08 b8 ca ff bf 37 c6 b0 fb 36
       -4.612242e-05 -3.244273e-05 2.2888085e-05 7.500962e-06
0000a0 67 63 5a b8 cd 6b b2 b7 98 0f 05 b8 bc 68 d1 37
       -5.2067826e-05 -2.1269452e-05 -3.1724194e-05 2.4963512e-05
0000b0 96 53 96 37 69 e5 b9 b7 0b cc ee b7 c1 eb 17 38
       1.7920316e-05 -2.2160546e-05 -2.8466826e-05 3.622077e-05
0000c0 36 1f 6f b8 ce b0 09 b7 35 5a a4 b6 7c 49 45 b8
       -5.7011108e-05 -8.207002e-06 -4.8980824e-06 -4.7036898e-05
0000d0 8c a2 bf b7 25 d8 d1 37 5a 15 c3 b7 28 a1 29 b7
       -2.2844666e-05 2.5015392e-05 -2.3255754e-05 -1.0110707e-05
0000e0 4d 0b 44 b6 73 df d0 b6 c1 bf df 37 a4 ec b1 38
       -2.9212854e-06 -6.224896e-06 2.6672964e-05 8.4840955e-05
0000f0 81 e5 84 38 e6 e9 14 37 6d ec 10 35 73 66 d7 b6
       6.336999e-05 8.875946e-06 5.3988225e-07 -6.419426e-06
000100 42 59 00 b8 2b f1 26 37 87 2e 11 39 b6 bd 83 38
       -3.0600706e-05 9.950522e-06 0.0001384561 6.281903e-05
000110 c8 c8 22 b8 ff c1 fc 39 75 50 34 39 97 75 8f 38
       -3.8810802e-05 0.00048209724 0.0001719611 6.840674e-05
000120 e7 57 9a 38 de ac 34 39 71 9b 24 b8 aa ef 78 37
       7.359665e-05 0.00017230536 -3.9245413e-05 1.4837753e-05
000130 a9 0b 03 b8 f1 40 63 39 36 97 45 b8 e7 4d 35 b8
       -3.1243693e-05 0.000216726 -4.7109286e-05 -4.3226315e-05
000140 43 7f 22 37 66 cb 3d 38 75 0b d6 b7 ce bc 1d 38
       9.685583e-06 4.525054e-05 -2.5516123e-05 3.7607555e-05
000150 7f 19 3c b8 a1 8a a1 39 73 e6 0f 39 30 fb ad 38
       -4.4846438e-05 0.000308116 0.00013723392 8.29607e-05
000160 13 dd 07 38 0a 6c 19 3a aa e3 89 39 87 90 f0 39
       3.23924e-05 0.0005852586 0.000263003 0.00045884048
000170 78 3e 43 38 9a f6 af b7 0c 8f 20 b8 d1 ad 16 b8
       4.65498e-05 -2.0976458e-05 -3.8280195e-05 -3.5924666e-05
000180 a7 9e b3 38 45 58 1d 38 32 19 17 3a 76 cd 5c b8
       8.5649364e-05 3.7513924e-05 0.0005763947 -5.2643438e-05
000190 84 ec 04 3a 29 25 9a 39 14 3c 3d b8 63 30 10 b8
       0.0005070644 0.00029400855 -4.5117064e-05 -3.437734e-05
0001a0 4a 35 13 3a 34 83 12 39 5c 91 86 39 42 6a 37 b8
       0.00056155457 0.00013972522 0.00025666773 -4.372956e-05
0001b0 52 64 20 b8 76 fb 5b 39 41 5b 30 39 00 2a c5 b7
       -3.8240403e-05 0.00020979144 0.00016818663 -2.3503788e-05
0001c0 ef 9a 26 3a 83 ab 2f 38 52 10 8d 37 06 61 03 3a
       0.00063554844 4.1882984e-05 1.681611e-05 0.0005011711
0001d0 0a a9 2d 39 50 a4 41 b8 40 76 45 39 72 3a d6 38
       0.00016561538 -4.6167814e-05 0.00018831436 0.000102152015
0001e0 5e 22 de 36 15 74 5d 37 ec 1d dd b7 a7 88 73 b8
       6.6201164e-06 1.3199654e-05 -2.6359186e-05 -5.8062982e-05
0001f0 0b e4 2b b8 2e 40 0c b8 d0 78 f4 b6 1b 78 b1 36
       -4.098196e-05 -3.3438373e-05 -7.285831e-06 5.288993e-06
000200 e2 2e 1c bb 9b 93 86 b8 77 c4 a5 3a c5 a4 bd 39
       -0.0023831655 -6.4171116e-05 0.0012647052 0.00036171652
000210 a1 62 57 ba 31 32 7c 3b 0c cd cb 3a cc 10 18 3a
       -0.0008216296 0.0038482065 0.001554878 0.0005800843
000220 4a 29 63 3a 61 8f ae 3a 89 b3 f4 ba 7b 79 dc 38
       0.00086655153 0.0013317877 -0.0018669228 0.00010513045
000230 80 ee da ba da b9 f2 3a 65 06 9c ba 50 c9 92 ba
       -0.0016703159 0.0018518523 -0.0011903761 -0.0011198912
000240 01 c1 81 38 2d 90 e6 39 4e 1e 14 bb fc 48 fd 39
       6.187149e-05 0.00043976438 -0.002260107 0.00048310298
000250 e9 4d 29 bb ad f4 26 3b 6b d1 aa 3a 42 e9 09 3a
       -0.0025833792 0.0025475428 0.0013032382 0.00052608934
000260 f4 5c d0 39 c5 91 9b 3b 46 1f 08 3b e2 63 5d 3b
       0.00039742107 0.0047476017 0.0020770594 0.0033781459
000270 2b bd 97 39 16 67 af b9 5e 6c 58 ba ff 39 11 bb
       0.00028941905 -0.00033455406 -0.0008255894 -0.0022159813
000280 82 fb 64 3a fe e5 12 3a 35 fe 9a 3b 65 0f 47 bb
       0.00087349874 0.00056037295 0.004730011 -0.0030374166
000290 1a 9e 84 3b 89 39 0f 3b 98 10 88 ba 98 e7 5b ba
       0.0040471675 0.0021854362 -0.0010380922 -0.0008388697
0002a0 d3 5c 91 3b 58 c3 af 3a eb d2 06 3b 05 16 b0 ba
       0.0044361143 0.0013409657 0.0020572494 -0.0013434297
0002b0 67 b2 55 ba 2d 45 bf 3a bc 56 d1 3a 5f a2 02 bb
       -0.0008151889 0.001459276 0.0015971283 -0.0019933206
0002c0 12 8b a7 3b 1b 47 00 3a 14 10 a3 39 c3 c6 72 3b
       0.005113014 0.0004893408 0.00031101762 0.003704474
0002d0 02 77 b0 3a 09 86 8e ba 91 62 cf 3a 8d a9 27 3a
       0.0013463201 -0.0010873686 0.0015822222 0.00063958095
0002e0 59 2a d7 38 19 53 45 39 3d 3a dc ba 69 26 4c bb
       0.00010259887 0.0001881834 -0.0016802024 -0.0031150824
0002f0 8f 1b 2e bb 8c c1 61 ba fb be 7e b9 ef 48 89 39
       -0.002656672 -0.00086119096 -0.00024294473 0.00026185016
000300 62 41 c3 b9 cf 42 7a b8 70 36 a1 39 b2 97 1d 39
       -0.00037242012 -5.9666865e-05 0.00030748872 0.00015029198
000310 1c 8a c5 b8 8e d3 9b 3a cd 12 b1 39 84 59 66 39
       -9.419417e-05 0.001188861 0.00033774078 0.00021967856
000320 4b e8 82 39 20 b6 8c 39 28 67 ae b9 72 88 ba b7
       0.00024968604 0.00026838575 -0.00033264724 -2.2236465e-05
000330 e6 51 be b9 7f ec ad 39 f7 9c 57 b9 32 fa 3d b9
       -0.00036300643 0.00033173335 -0.00020562472 -0.0001811765
000340 13 12 26 b8 9b bc 3a 39 23 a1 c1 b9 3d c7 35 39
       -3.9594317e-05 0.00017808603 -0.00036931885 0.00017335727
000350 3c 24 b4 b9 b8 d4 0c 3a d4 a6 6a 39 d9 2e 5b 39
       -0.00034359272 0.0005372274 0.00022378127 0.0002090292
000360 e4 8c 26 39 79 f9 b8 3a 22 0e e2 39 01 a3 8e 3a
       0.0001588348 0.0014112435 0.0004311661 0.0010882319
000370 27 d7 1c 39 06 a4 56 b6 44 fb e3 b8 46 5e b8 b9
       0.0001495747 -3.198396e-06 -0.00010871005 -0.00035165454
000380 0e 2e 4e 39 46 cc 12 39 f2 5e b6 3a 85 99 c1 b9
       0.00019662848 0.00013999743 0.0013913794 -0.0003692621
000390 7f e6 9a 3a fe 77 36 3a 06 61 31 b9 ef 79 98 b9
       0.0011817961 0.0006960629 -0.0001691618 -0.00029082547
0003a0 2e 58 b6 3a 68 08 9d 39 59 3b e0 39 4e 02 93 b9
       0.0013911778 0.00029951637 0.00042768827 -0.00028039742
0003b0 44 f2 09 b9 57 31 f3 39 38 56 82 39 2a 19 c4 b9
       -0.00013155589 0.00046385333 0.0002485977 -0.00037402782
0003c0 1b 08 d2 3a bb 86 3c 39 68 f6 fb 38 23 a9 9b 3a
       0.0016024144 0.00017979268 0.000120145094 0.0011875968
0003d0 7d 4b 88 39 c5 35 23 b9 b4 5e e4 39 25 0d 7b 39
       0.00025996185 -0.00015564922 0.00043558108 0.00023942122
0003e0 97 1c 8e b6 03 89 d3 b7 18 b4 c3 b9 5d be c0 b9
       -4.235258e-06 -2.5216961e-05 -0.0003732748 -0.00036762925
0003f0 20 a9 be b9 03 73 91 b9 86 33 08 b9 8b 40 64 37
       -0.00036365632 -0.00027742246 -0.00012989165 1.3604887e-05

exp_avg_sq f4 [64, 64]
000000 0d 6c 84 34 f6 b0 ee 30 b3 87 0a 33 65 6a 8d 31
       2.4665533e-07 1.7367074e-09 3.2254047e-08 4.1157358e-09
000010 e7 0c 00 33 00 ad 56 34 e8 2b 6b 33 15 66 48 32
       2.9814057e-08 1.999324e-07 5.4755134e-08 1.1664743e-08
000020 ae d9 6f 32 de 84 41 33 52 d8 0f 34 2f 31 01 31
       1.3961126e-08 4.5057156e-08 1.339661e-07 1.8799928e-09
000030 ce d6 e5 33 98 66 cc 33 c2 a7 40 33 b3 4f 1e 33
       1.0702716e-07 9.518152e-08 4.485606e-08 3.6859728e-08
000040 8e 25 0c 31 8d 38 22 32 56 5a 63 34 4d af 00 32
       2.0394029e-09 9.442499e-09 2.1173886e-07 7.490439e-09
000050 b9 68 98 34 1b f4 28 34 6c 87 4b 33 5a 91 16 32
       2.8388402e-07 1.5735024e-07 4.7387786e-08 8.764198e-09
000060 fa 60 04 32 fa 26 b1 34 d6 2e e6 33 16 21 1e 34
       7.705461e-09 3.2997178e-07 1.0718729e-07 1.4726933e-07
000070 55 d7 1f 32 cb bd 77 32 c0 16 cf 32 b0 90 59 34
       9.303979e-09 1.4420446e-08 2.4108317e-08 2.0262337e-07
000080 e0 4d 8f 32 69 d5 e1 31 ec 91 b2 34 9c 99 ea 34
       1.6682804e-08 6.572624e-09 3.3261256e-07 4.3697662e-07
000090 c3 a8 87 34 47 1b 8d 33 22 7a 11 33 08 a3 e4 32
       2.52685e-07 6.570786e-08 3.3871522e-08 2.6616831e-08
0000a0 07 d8 89 34 47 72 28 33 d4 1f e0 33 50 5a 84 33
       2.567542e-07 3.9219483e-08 1.0436602e-07 6.163157e-08
0000b0 55 a5 b1 32 d7 03 0e 33 ae fc a4 33 bb 6d 2a 34
       2.0680696e-08 3.3065444e-08 7.682807e-08 1.5872403e-07
0000c0 e6 9c b3 34 c1 a2 0a 32 d0 7b 99 31 03 6d 40 34
       3.3455507e-07 8.069663e-09 4.466962e-09 1.7921052e-07
0000d0 3a 42 4b 33 44 b7 28 33 4e 78 3b 33 47 83 29 32
       4.7324853e-08 3.9282227e-08 4.3648747e-08 9.866944e-09
0000e0 fc 2e 62 30 22 b5 84 31 cc f5 e8 33 02 b5 f7 34
       8.228509e-10 3.862298e-09 1.0848052e-07 4.6139036e-07
0000f0 b2 5e ab 34 2d c5 db 32 9e 2c a9 31 d3 32 50 31
       3.1920132e-07 2.558462e-08 4.9236197e-09 3.0296874e-09
000100 f4 1c 5f 33 fb 6a 88 32 b8 c2 ae 33 7f 26 a3 33
       5.1947566e-08 1.5881133e-08 8.1379255e-08 7.5972814e-08
000110 a9 b1 50 32 9b a7 8b 35 45 4d fd 33 e1 0e 5c 33
       1.2147589e-08 1.0405087e-06 1.1795286e-07 5.1236274e-08
000120 c3 8e 16 33 30 5f 26 34 7d 66 07 33 2f a2 a8 31
       3.5054438e-08 1.5494584e-07 3.152535e-08 4.9078817e-09
000130 69 2e f1 32 81 ba 56 34 77 a7 88 32 4a 8f b3 32
       2.8077197e-08 1.9998153e-07 1.5908638e-08 2.0903503e-08
000140 a3 cd 98 31 1e d1 e6 32 77 33 42 33 b1 79 9f 32
       4.4471604e-09 2.687062e-08 4.5215952e-08 1.8565375e-08
000150 a1 53 88 33 db 61 d4 34 50 96 a8 33 d8 7b dc 33
       6.3482055e-08 3.9559276e-07 7.850451e-08 1.02670754e-07
000160 4a 6e 96 32 a5 9f ca 35 33 28 9e 34 c8 b6 84 35
       1.7512452e-08 1.5096635e-06 2.9459042e-07 9.887963e-07
000170 8b 6e 46 33 21 21 fc 31 74 a1 37 32 a5 1a 40 33
       4.6201006e-08 7.3379316e-09 1.0688712e-08 4.4727717e-08
000180 d9 04 fb 32 44 f5 46 32 74 ed c2 35 08 de c8 33
       2.922245e-08 1.1580884e-08 1.4523234e-06 9.353613e-08
000190 32 74 96 35 0c 9e f1 34 6d 60 60 32 b1 f8 c2 32
       1.1209688e-06 4.5004742e-07 1.3060441e-08 2.2697664e-08
0001a0 c3 2b bf 35 e9 82 a5 33 23 01 95 34 f2 53 99 32
       1.4243345e-06 7.707224e-08 2.775424e-07 1.7849718e-08
0001b0 ed f2 1e 32 ab 4b 9d 34 34 66 0b 34 dc 09 1b 33
       9.252045e-09 2.9298585e-07 1.2982565e-07 3.6097717e-08
0001c0 c2 50 f6 35 72 a7 b3 32 1b 63 18 32 33 59 9d 35
       1.8351932e-06 2.0914488e-08 8.870098e-09 1.1723372e-06
0001d0 50 e3 0b 34 eb 17 85 32 c3 3f 32 34 8b 14 19 34
       1.302808e-07 1.5494114e-08 1.6600738e-07 1.4256709e-07
0001e0 05 8b 96 30 a3 2d dd 31 ce 04 00 33 40 8e d1 33
       1.0953448e-09 6.437135e-09 2.9806692e-08 9.758196e-08
0001f0 42 e0 93 33 7a e7 af 32 f9 50 43 32 05 03 02 32
       6.886013e-08 2.0477945e-08 1.1368905e-08 7.5676825e-09
000200 6e 9e 38 38 fc 39 21 34 76 d6 38 37 1d 82 86 35
       4.4016568e-05 1.5015388e-07 1.1017188e-05 1.0021646e-06
000210 fb 18 d5 36 8e f3 ce 38 6b 02 95 37 f7 6f 34 36
       6.350803e-06 9.868211e-05 1.776331e-05 2.6887262e-06
000220 d0 10 9d 36 69 7c 67 37 26 a3 d8 37 cc e7 8d 34
       4.680922e-06 1.3797639e-05 2.5825178e-05 2.643195e-07
000230 4c 73 a8 37 50 e2 ea 37 54 2f 2c 37 3e fe 19 37
       2.008085e-05 2.8000359e-05 1.0263018e-05 9.178706e-06
000240 63 7d 7a 34 fb 51 f1 35 30 94 22 38 7c 21 e2 35
       2.332868e-07 1.7979759e-06 3.876182e-05 1.6848057e-06
000250 2b a6 5c 38 b9 27 56 38 a5 f3 63 37 e1 7e 10 36
       5.2606843e-05 5.105857e-05 1.3586982e-05 2.1531525e-06
000260 12 f9 bd 35 51 d3 25 39 d8 71 0e 38 c6 41 9c 38
       1.4154086e-06 0.00015814348 3.3961463e-05 7.450911e-05
000270 33 34 bd 35 8b 5b 17 36 fe 26 ba 36 6d 67 1d 38
       1.4096789e-06 2.2554038e-06 5.5477713e-06 3.752804e-05
000280 89 a1 b2 36 bb 81 07 36 87 fb 24 39 6f c1 9f 38
       5.3236186e-06 2.019208e-06 0.0001573396 7.6177406e-05
000290 9d 3b f0 38 d1 9b fc 37 6b 36 05 37 0f 31 a2 36
       0.000114551956 3.0113299e-05 7.940088e-06 4.8336874e-06
0002a0 aa 2c 0b 39 62 48 57 37 02 03 0b 38 60 54 56 37
       0.00013272712 1.2831852e-05 3.3142984e-05 1.2775039e-05
0002b0 68 58 a5 36 79 f5 62 37 4a fd b2 37 86 5e f6 37
       4.927675e-06 1.3527803e-05 2.13372e-05 2.9369501e-05
0002c0 18 69 3b 39 ef e4 ef 35 57 5d 54 35 f2 f5 be 38
       0.0001787286 1.7873516e-06 7.911198e-07 9.105717e-05
0002d0 2e b2 6e 37 d7 b9 19 37 37 a3 8a 37 16 9a 40 36
       1.4227391e-05 9.16278e-06 1.6526885e-05 2.869992e-06
0002e0 30 a4 1a 34 62 84 22 35 bd dd a9 37 54 af a9 38
       1.4402099e-07 6.0542345e-07 2.0249625e-05 8.0912054e-05
0002f0 a3 ac 6c 38 81 da a8 36 e3 18 18 35 cb c5 2c 35
       5.6427565e-05 5.0322274e-06 5.666063e-07 6.436282e-07
000300 63 aa 9e 36 2d d9 a7 33 a0 bc 2f 36 3f af e4 34
       4.7286026e-06 7.8160475e-08 2.6186826e-06 4.2595818e-07
000310 03 b7 7a 35 4b 6f f3 37 ad a7 93 36 a9 51 07 35
       9.3398575e-07 2.9019682e-05 4.4004614e-06 5.041025e-07
000320 40 3d 61 35 a7 b1 85 36 e0 7b 47 36 0f ec 98 33
       8.390816e-07 3.9843903e-06 2.9725416e-06 7.1209904e-08
000330 d6 1d 29 36 c7 74 fc 36 3e d2 ad 35 ac 85 a7 35
       2.520033e-06 7.52378e-06 1.2950693e-06 1.2481373e-06
000340 3e 1e 7c 33 59 a9 9d 34 0e 64 90 36 ae b2 8a 34
       5.8700827e-08 2.9366745e-07 4.3031823e-06 2.583451e-07
000350 8f 2e b5 36 75 ab 77 37 15 5f 58 36 b0 7c 33 35
       5.3996405e-06 1.4762268e-05 3.2241853e-06 6.686414e-07
000360 31 39 66 34 41 d9 50 38 82 11 26 37 52 6e bb 37
       2.1441225e-07 4.9793398e-05 9.898447e-06 2.2343509e-05
000370 1f e2 a9 34 af 65 dc 34 db 3e 4c 35 8e 20 89 36
       3.1643228e-07 4.1052178e-07 7.608739e-07 4.086708e-06
000380 19 d5 98 35 02 14 b5 34 3e 20 4e 38 46 62 f7 36
       1.1386902e-06 3.3728435e-07 4.9144255e-05 7.372614e-06
000390 3f f7 15 38 87 9d 06 37 28 81 89 35 2f aa 60 35
       3.5754634e-05 8.0237e-06 1.0244885e-06 8.369415e-07
0003a0 41 28 2a 38 14 50 47 36 8a 8c 1f 37 80 3c d9 35
       4.0568648e-05 2.9699922e-06 9.50986e-06 1.6185368e-06
0003b0 b3 d8 2f 35 bd 83 84 36 87 c0 ae 36 7d 7c 67 36
       6.550792e-07 3.949243e-06 5.2080172e-06 3.4494144e-06
0003c0 78 e1 67 38 ac 11 96 34 85 7a ff 33 be 2e ed 37
       5.5284676e-05 2.7952535e-07 1.1896649e-07 2.8274368e-05
0003d0 e4 87 82 36 ca ae a0 35 76 63 8c 36 85 8e 81 35
       3.8901217e-06 1.1971799e-06 4.183904e-06 9.652728e-07
0003e0 07 08 e2 32 46 2e fc 33 5d 52 2d 36 26 e0 ff 36
       2.6313513e-08 1.17430815e-07 2.582695e-06 7.6256865e-06
0003f0 fb a7 c0 36 82 95 63 35 28 e5 fe 33 8b 0b e4 33
       5.7416014e-06 8.478165e-07 1.186948e-07 1.0619177e-07

exp_avg f4 [1, 64]
000000 d3 e4 06 b9 f4 97 2e 3c c5 cb a3 3b 95 87 dc 3b
       -0.0001286448 0.010656346 0.0049986565 0.00673003
000010 66 ba 92 3c 7f fc 83 bc 86 88 8f bc a2 fc b8 3b
       0.017911147 -0.01611161 -0.017521154 0.0056453506
000020 39 fb a1 bc 08 9e 9c bb e3 a4 8b bc 06 73 8b bc
       -0.019773113 -0.004779581 -0.017046398 -0.01702262
000030 c8 e7 0e 3c 2e 15 a8 3c cc b1 17 bb 58 87 b4 3c
       0.008722253 0.020517912 -0.0023146747 0.022037193
000040 f8 7d c5 ba 54 77 cb 3d 97 de 38 3c 9b 2e 99 bc
       -0.0015067449 0.099348694 0.011283538 -0.018698981
000050 de 1a 19 bb b3 34 65 3c 6e 77 1b 3c 00 44 a7 3c
       -0.0023361961 0.013989615 0.0094889235 0.020418167
000060 3c cb 78 ba 0e 50 7c bb 18 15 bb bb da a4 cf 3b
       -0.00094907335 -0.0038499865 -0.0057093017 0.0063367905
000070 9a e7 97 3c 85 4e 7f 3c e8 93 f7 b8 e5 a2 ad b8
       0.018543053 0.015582685 -0.000118054275 -8.279624e-05
000080 63 b4 e1 ba 81 13 a6 bc c7 9c 71 bc 3a 8f a7 ba
       -0.0017219897 -0.020272972 -0.014746851 -0.0012783774
000090 da d4 26 3d 86 70 a3 3a 0a e7 e6 bb 78 e9 94 3c
       0.040730335 0.0012469448 -0.007046585 0.018177733
0000a0 62 2c 8b bc cd bc 93 ba 2e bb 9d bc fa 32 47 bc
       -0.016988937 -0.0011271477 -0.019254293 -0.01215815
0000b0 17 49 61 bc c6 52 91 3c e9 3f c1 b9 67 17 5b bb
       -0.013750336 0.017739665 -0.00036859445 -0.0033430697
0000c0 0f 71 35 3a 82 32 df 3b 60 20 03 3a ed 99 93 3c
       0.0006921449 0.006811441 0.00050020777 0.018017733
0000d0 47 6e 30 3a 47 a2 8b bc 77 26 bc 3c 7e 83 05 3b
       0.00067303 -0.017045153 0.02296756 0.0020372565
0000e0 cf b6 74 bc 73 8f b6 bc f2 a8 89 3a 10 a5 8f bc
       -0.014936163 -0.022285199 0.001050262 -0.017534763
0000f0 af 85 9f 3c b7 8e d9 bb 05 fe 04 3d 91 e5 b8 3a
       0.019472925 -0.0066393274 0.032468814 0.0014106502

exp_avg_sq f4 [1, 64]
000000 c4 29 e2 38 f1 e2 e0 39 68 f2 2b 39 af 83 4d 3a
       0.00010784299 0.00042893694 0.00016398134 0.0007839752
000010 c3 db c6 3a 19 ca 8a 3b cb b0 ad 3b 35 91 8b 39
       0.0015171695 0.0042355177 0.0053006164 0.00026620334
000020 fc ed ab 3b b7 e5 00 3a 9d a9 bd 3b e6 0e 96 3b
       0.005246876 0.00049170427 0.0057880417 0.0045794128
000030 de d2 65 3a 60 85 27 3b 50 30 ad 39 34 33 3a 3b
       0.00087670784 0.0025561675 0.00033033127 0.0028411867
000040 ec 46 85 39 43 e5 2a 3d 5a 5b 81 3a c0 97 bd 3b
       0.00025420578 0.041722547 0.0009869144 0.0057859123
000050 be 80 2c 39 1a 01 3b 3b b0 5f 8c 3a de 7e 1f 3b
       0.00016451158 0.0028534592 0.001070967 0.0024337093
000060 d9 07 94 38 a4 3d 08 3a 29 90 7d 39 e6 3f 3e 3a
       7.058652e-05 0.00051971735 0.00024181664 0.00072574464
000070 62 01 b4 3a a6 9b 6e 3a a8 5d 88 36 22 e7 bd 38
       0.0013733322 0.0009102173 4.064019e-06 9.055274e-05
000080 c1 1d a8 39 ce 3b aa 3b 27 89 84 3b d4 15 70 38
       0.00032065625 0.0051951176 0.00404467 5.7240788e-05
000090 b2 92 31 3c d6 63 20 39 46 7f 8e 3b 7a 95 a2 3a
       0.010838198 0.00015295981 0.0043486683 0.0012404167
0000a0 62 f4 83 3b 40 6b e9 38 54 ce 9f 3b 6e 20 84 3b
       0.0040269354 0.00011130283 0.004876891 0.004032186
0000b0 ce 30 76 3b 46 f4 bf 3a d6 0c 3f 39 1b 9d 45 3a
       0.003756571 0.0014644943 0.00018219961 0.0007538364
0000c0 d7 e5 0b 39 fa e4 32 3a 0b 63 85 37 cc 2d ca 3a
       0.00013341695 0.00068242813 1.5900956e-05 0.0015425025
0000d0 f3 e9 c2 37 4b 2a 92 3b 9d 9e 22 3b 3c f9 b5 38
       2.3235543e-05 0.004460608 0.002481378 8.677176e-05
0000e0 3f 35 75 3b ff c0 c7 3b e4 74 3e 38 b7 f0 95 3b
       0.003741577 0.006096005 4.5408393e-05 0.0045758146
0000f0 2b 47 ed 3a f8 e3 8c 3a dd 24 12 3c 6c 01 56 38
       0.0018102875 0.0010749092 0.008919922 5.10229e-05
